data/gesture_model.tflite (tflite, 78544 bytes, 8 tensors)

tfl.pseudo_qconst1 i1 [32, 64]
0	0xec	-20
1	0xad	-83
2	0xfc	-4
3	0xad	-83
4	0x9f	-97
5	0x9b	-101
6	0x17	23
7	0xa4	-92
8	0x17	23
9	0xfa	-6
10	0x81	-127
11	0x97	-105
12	0xe5	-27
13	0xce	-50
14	0x12	18
15	0xa9	-87
16	0x50	80
17	0x29	41
18	0x32	50
19	0x5e	94
20	0x44	68
21	0xae	-82
22	0xb6	-74
23	0x63	99
24	0x4a	74
25	0xb7	-73
26	0xf3	-13
27	0x8c	-116
28	0x91	-111
29	0x47	71
30	0xb9	-71
31	0xb9	-71
32	0xbe	-66
33	0x13	19
34	0xea	-22
35	0x4d	77
36	0xa4	-92
37	0xe9	-23
38	0x46	70
39	0x53	83
40	0x9c	-100
41	0x49	73
42	0xa8	-88
43	0xbe	-66
44	0x0e	14
45	0x4f	79
46	0x10	16
47	0x35	53
48	0xd3	-45
49	0xa0	-96
50	0xf6	-10
51	0xaf	-81
52	0xb5	-75
53	0x49	73
54	0x58	88
55	0xf6	-10
56	0x79	121
57	0x3d	61
58	0xc6	-58
59	0xda	-38
60	0x23	35
61	0x15	21
62	0x33	51
63	0x8c	-116
64	0xdb	-37
65	0x43	67
66	0x21	33
67	0x4f	79
68	0x0f	15
69	0x21	33
70	0xdb	-37
71	0x45	69
72	0x0a	10
73	0x97	-105
74	0xd8	-40
75	0x0d	13
76	0x85	-123
77	0xab	-85
78	0xcd	-51
79	0x0f	15
80	0x81	-127
81	0x3c	60
82	0x22	34
83	0xa2	-94
84	0x15	21
85	0xbf	-65
86	0xbb	-69
87	0xbe	-66
88	0xd3	-45
89	0x0b	11
90	0x3f	63
91	0x03	3
92	0x54	84
93	0xcd	-51
94	0xa8	-88
95	0x9c	-100
96	0x27	39
97	0xfd	-3
98	0x04	4
99	0x28	40
100	0xc2	-62
101	0xc4	-60
102	0xf7	-9
103	0xd0	-48
104	0xf8	-8
105	0xeb	-21
106	0x28	40
107	0x02	2
108	0x02	2
109	0xda	-38
110	0x74	116
111	0x9e	-98
112	0x00	0
113	0xd5	-43
114	0x01	1
115	0xe2	-30
116	0x8d	-115
117	0x2c	44
118	0x61	97
119	0x25	37
120	0x3f	63
121	0xe8	-24
122	0x52	82
123	0xe7	-25
124	0xd5	-43
125	0x92	-110
126	0xc3	-61
127	0x92	-110
128	0x38	56
129	0xd5	-43
130	0x03	3
131	0x70	112
132	0x54	84
133	0x42	66
134	0x53	83
135	0x07	7
136	0xd9	-39
137	0xa1	-95
138	0x5f	95
139	0x2e	46
140	0x81	-127
141	0xf0	-16
142	0xb6	-74
143	0x3b	59
144	0xb9	-71
145	0xc4	-60
146	0x4e	78
147	0x1b	27
148	0xb5	-75
149	0x11	17
150	0xcd	-51
151	0xaa	-86
152	0x62	98
153	0x3f	63
154	0xa5	-91
155	0x10	16
156	0x0c	12
157	0xac	-84
158	0x26	38
159	0x68	104
160	0xb2	-78
161	0x96	-106
162	0xcb	-53
163	0xe5	-27
164	0x62	98
165	0xea	-22
166	0x9f	-97
167	0x4c	76
168	0x28	40
169	0x17	23
170	0xbc	-68
171	0xa2	-94
172	0x3b	59
173	0xcf	-49
174	0x24	36
175	0xb9	-71
176	0x2a	42
177	0xe6	-26
178	0xfd	-3
179	0xb2	-78
180	0xfd	-3
181	0x9e	-98
182	0xcb	-53
183	0xa7	-89
184	0x9d	-99
185	0x34	52
186	0x0e	14
187	0x8f	-113
188	0x9a	-102
189	0xcd	-51
190	0xe0	-32
191	0x76	118
192	0x26	38
193	0xd7	-41
194	0x2b	43
195	0xea	-22
196	0x4e	78
197	0x8d	-115
198	0x48	72
199	0x3c	60
200	0xc6	-58
201	0x9d	-99
202	0xdd	-35
203	0xd0	-48
204	0x41	65
205	0xb5	-75
206	0xc7	-57
207	0xf7	-9
208	0x56	86
209	0x1c	28
210	0x20	32
211	0xb9	-71
212	0xcf	-49
213	0xa8	-88
214	0x36	54
215	0xa6	-90
216	0x44	68
217	0x64	100
218	0x2f	47
219	0x0e	14
220	0xa8	-88
221	0x02	2
222	0x01	1
223	0x1c	28
224	0x24	36
225	0x04	4
226	0x19	25
227	0xbc	-68
228	0x46	70
229	0x8a	-118
230	0xd7	-41
231	0xf7	-9
232	0x15	21
233	0x81	-127
234	0x06	6
235	0x2b	43
236	0x57	87
237	0x8c	-116
238	0xb4	-76
239	0x5b	91
240	0x94	-108
241	0x2f	47
242	0xa9	-87
243	0xad	-83
244	0x10	16
245	0xcd	-51
246	0x39	57
247	0x4c	76
248	0xf2	-14
249	0xd0	-48
250	0x1d	29
251	0x2c	44
252	0xea	-22
253	0xa9	-87
254	0x21	33
255	0xf4	-12

tfl.pseudo_qconst3 i1 [64, 64]
0	0xb3	-77
1	0xec	-20
2	0xa5	-91
3	0xe6	-26
4	0x32	50
5	0x0c	12
6	0x8f	-113
7	0xb1	-79
8	0x19	25
9	0xbd	-67
10	0xc5	-59
11	0x10	16
12	0x1e	30
13	0xbd	-67
14	0x08	8
15	0xeb	-21
16	0x05	5
17	0x1f	31
18	0xf9	-7
19	0x57	87
20	0xdd	-35
21	0x40	64
22	0x1f	31
23	0x2b	43
24	0xe1	-31
25	0x48	72
26	0xb2	-78
27	0xda	-38
28	0x3b	59
29	0xdf	-33
30	0x36	54
31	0x31	49
32	0xf9	-7
33	0xfe	-2
34	0xaa	-86
35	0x2b	43
36	0x1a	26
37	0x33	51
38	0xef	-17
39	0x34	52
40	0xec	-20
41	0xf9	-7
42	0xc2	-62
43	0x05	5
44	0x34	52
45	0xb4	-76
46	0xef	-17
47	0xba	-70
48	0xab	-85
49	0x15	21
50	0xd8	-40
51	0x81	-127
52	0xd2	-46
53	0xe4	-28
54	0xf9	-7
55	0x6e	110
56	0xe0	-32
57	0x6b	107
58	0x3a	58
59	0x10	16
60	0x26	38
61	0xa7	-89
62	0x7b	123
63	0x06	6
64	0x6a	106
65	0x81	-127
66	0x46	70
67	0x16	22
68	0x2d	45
69	0xdf	-33
70	0xd3	-45
71	0x1d	29
72	0xdc	-36
73	0x51	81
74	0x14	20
75	0x1e	30
76	0xe8	-24
77	0x1b	27
78	0x15	21
79	0x54	84
80	0xf6	-10
81	0xaa	-86
82	0x2e	46
83	0x04	4
84	0x08	8
85	0x12	18
86	0x47	71
87	0x19	25
88	0x95	-107
89	0xc4	-60
90	0x18	24
91	0x46	70
92	0x8c	-116
93	0x28	40
94	0x45	69
95	0xa6	-90
96	0x04	4
97	0x28	40
98	0xbd	-67
99	0x00	0
100	0x50	80
101	0xa7	-89
102	0xd2	-46
103	0x3b	59
104	0x4e	78
105	0xe0	-32
106	0x17	23
107	0xa1	-95
108	0xed	-19
109	0x0c	12
110	0x11	17
111	0x31	49
112	0x02	2
113	0xdf	-33
114	0xef	-17
115	0xf3	-13
116	0xee	-18
117	0x05	5
118	0x0a	10
119	0xf7	-9
120	0xde	-34
121	0x08	8
122	0x63	99
123	0x0a	10
124	0x3f	63
125	0xb3	-77
126	0x1a	26
127	0x18	24
128	0xe0	-32
129	0x1a	26
130	0x29	41
131	0x7f	127
132	0xe9	-23
133	0x02	2
134	0xf1	-15
135	0x63	99
136	0x9a	-102
137	0x4c	76
138	0x05	5
139	0xbb	-69
140	0xdf	-33
141	0xe7	-25
142	0xd9	-39
143	0x67	103
144	0x00	0
145	0xf9	-7
146	0xd0	-48
147	0xca	-54
148	0xc2	-62
149	0xf1	-15
150	0xbc	-68
151	0x38	56
152	0x4c	76
153	0x31	49
154	0xe1	-31
155	0x0d	13
156	0x1a	26
157	0xeb	-21
158	0x0d	13
159	0x0d	13
160	0x48	72
161	0x38	56
162	0x9c	-100
163	0x0e	14
164	0x0f	15
165	0x40	64
166	0x15	21
167	0xbf	-65
168	0x3d	61
169	0x3e	62
170	0xf3	-13
171	0xaa	-86
172	0x57	87
173	0x43	67
174	0xec	-20
175	0xb9	-71
176	0x43	67
177	0xbc	-68
178	0x21	33
179	0xea	-22
180	0xb2	-78
181	0xa1	-95
182	0x25	37
183	0xde	-34
184	0x0d	13
185	0x4f	79
186	0x25	37
187	0xd2	-46
188	0x28	40
189	0xb4	-76
190	0xd6	-42
191	0xd3	-45
192	0x60	96
193	0x81	-127
194	0xcf	-49
195	0xe9	-23
196	0x17	23
197	0xee	-18
198	0x25	37
199	0xba	-70
200	0x4c	76
201	0x13	19
202	0xbd	-67
203	0xd3	-45
204	0x2a	42
205	0x23	35
206	0xbc	-68
207	0x25	37
208	0xad	-83
209	0x3f	63
210	0x07	7
211	0xf3	-13
212	0x5b	91
213	0x00	0
214	0xbb	-69
215	0x49	73
216	0x6d	109
217	0xd6	-42
218	0x62	98
219	0xc1	-63
220	0xd9	-39
221	0xfc	-4
222	0xa5	-91
223	0xcb	-53
224	0xda	-38
225	0xb8	-72
226	0xc1	-63
227	0xbc	-68
228	0xf2	-14
229	0xe1	-31
230	0xb3	-77
231	0x12	18
232	0xc6	-58
233	0x75	117
234	0x17	23
235	0xdc	-36
236	0x2d	45
237	0xfc	-4
238	0x93	-109
239	0xcb	-53
240	0x2e	46
241	0xc5	-59
242	0x2f	47
243	0x94	-108
244	0xb9	-71
245	0x08	8
246	0x01	1
247	0xe8	-24
248	0x0c	12
249	0x11	17
250	0xa1	-95
251	0xc8	-56
252	0x4f	79
253	0xe3	-29
254	0x14	20
255	0xca	-54

tfl.pseudo_qconst4 i1 [64] scale=0.0039915014 zero_point=127
0	0xd8	-0.66658074
1	0xa7	-0.8621643
2	0xcf	-0.7025043
3	0xcb	-0.7184703
4	0xae	-0.8342238
5	0xc5	-0.74241924
6	0xa6	-0.8661558
7	0xbc	-0.7783428
8	0xba	-0.78632575
9	0xa6	-0.8661558
10	0xaf	-0.83023226
11	0xb6	-0.8022918
12	0xc6	-0.73842776
13	0xc7	-0.7344363
14	0x9f	-0.8940963
15	0xbe	-0.77035975
16	0xdc	-0.65061474
17	0x97	-0.9260283
18	0xb8	-0.7943088
19	0x06	-0.48297167
20	0x97	-0.9260283
21	0xf3	-0.5588102
22	0xb8	-0.7943088
23	0xb0	-0.8262408
24	0xd3	-0.6865382
25	0xb4	-0.8102748
26	0xd2	-0.69052976
27	0x9d	-0.90207934
28	0xc8	-0.7304447
29	0x9e	-0.8980878
30	0xb1	-0.8222493
31	0xb8	-0.7943088
32	0xcf	-0.7025043
33	0xd7	-0.6705722
34	0x98	-0.9220368
35	0xa8	-0.8581728
36	0xb5	-0.8062833
37	0xac	-0.8422068
38	0xba	-0.78632575
39	0xab	-0.8461983
40	0xc2	-0.75439376
41	0xa8	-0.8581728
42	0x95	-0.93401134
43	0xca	-0.72246176
44	0xce	-0.70649576
45	0x9d	-0.90207934
46	0x96	-0.93001986
47	0xd7	-0.6705722
48	0x80	-1.0178329
49	0xa5	-0.8701473
50	0xa6	-0.8661558
51	0x99	-0.91804534
52	0x8d	-0.96594334
53	0xe8	-0.6027167
54	0xbb	-0.78233427
55	0xd4	-0.68254673
56	0xae	-0.8342238
57	0xb5	-0.8062833
58	0xac	-0.8422068
59	0xbe	-0.77035975
60	0xba	-0.78632575
61	0xa1	-0.8861133
62	0x9b	-0.9100623
63	0xb1	-0.8222493

tfl.pseudo_qconst5 i1 [64] scale=0.005047743 zero_point=-128
0	0x2a	0.8581163
1	0x4d	1.0347874
2	0x43	0.9843099
3	0x2e	0.87830734
4	0x49	1.0145963
5	0x3c	0.94897574
6	0x2c	0.8682118
7	0x17	0.76220924
8	0x32	0.8984983
9	0x3f	0.96411896
10	0x17	0.76220924
11	0x16	0.7571615
12	0x1d	0.79249567
13	0x28	0.84802085
14	0x15	0.75211376
15	0x3f	0.96411896
16	0x48	1.0095487
17	0x58	1.0903125
18	0x41	0.97421443
19	0x27	0.8429731
20	0x21	0.8126867
21	0x30	0.8884028
22	0x1d	0.79249567
23	0x2f	0.8833551
24	0x17	0.76220924
25	0x7f	1.2871745
26	0x2d	0.8732596
27	0x3a	0.93888026
28	0x5d	1.1155512
29	0x2d	0.8732596
30	0x53	1.0650738
31	0x3b	0.943928
32	0x37	0.923737
33	0x32	0.8984983
34	0x33	0.90354604
35	0x2a	0.8581163
36	0x25	0.83287764
37	0x5b	1.1054558
38	0x34	0.9085938
39	0x4e	1.0398351
40	0x4f	1.0448829
41	0x20	0.8076389
42	0x25	0.83287764
43	0x11	0.73192275
44	0x13	0.7420182
45	0x4c	1.0297396
46	0x59	1.0953603
47	0x66	1.1609809
48	0x1d	0.79249567
49	0x1a	0.77735245
50	0x32	0.8984983
51	0x52	1.060026
52	0x1f	0.80259115
53	0x37	0.923737
54	0x43	0.9843099
55	0x29	0.8530686
56	0x54	1.0701215
57	0x2d	0.8732596
58	0x2c	0.8682118
59	0x4e	1.0398351
60	0x49	1.0145963
61	0x2b	0.86316407
62	0x03	0.66125435
63	0x38	0.9287847

tfl.pseudo_qconst7 i1 [64, 1, 3, 128]
0	0xd9	-39
1	0x0d	13
2	0x13	19
3	0x12	18
4	0x4a	74
5	0xdc	-36
6	0x2f	47
7	0xc9	-55
8	0x0c	12
9	0x2e	46
10	0x19	25
11	0xdd	-35
12	0xf0	-16
13	0xc4	-60
14	0x0b	11
15	0xe6	-26
16	0xb7	-73
17	0x31	49
18	0x27	39
19	0xe8	-24
20	0x0a	10
21	0x34	52
22	0x68	104
23	0xbd	-67
24	0xfe	-2
25	0xfb	-5
26	0xbd	-67
27	0x00	0
28	0x1a	26
29	0x2b	43
30	0x46	70
31	0x18	24
32	0x3a	58
33	0xe5	-27
34	0xf3	-13
35	0x05	5
36	0x16	22
37	0xc0	-64
38	0xf1	-15
39	0x40	64
40	0xb4	-76
41	0x20	32
42	0x29	41
43	0x01	1
44	0xc8	-56
45	0x3d	61
46	0x9a	-102
47	0xdd	-35
48	0xf2	-14
49	0x24	36
50	0xdb	-37
51	0x06	6
52	0x20	32
53	0xef	-17
54	0x74	116
55	0x20	32
56	0x94	-108
57	0x0e	14
58	0x18	24
59	0xf7	-9
60	0x00	0
61	0x1f	31
62	0x81	-127
63	0x3e	62
64	0xf5	-11
65	0xe3	-29
66	0x2d	45
67	0x3f	63
68	0x0a	10
69	0xdc	-36
70	0x09	9
71	0x09	9
72	0xce	-50
73	0xe6	-26
74	0x38	56
75	0x23	35
76	0x21	33
77	0xf9	-7
78	0xfa	-6
79	0x0e	14
80	0x06	6
81	0xd0	-48
82	0xbe	-66
83	0x0d	13
84	0x1b	27
85	0x07	7
86	0xf3	-13
87	0x3c	60
88	0xb7	-73
89	0xf7	-9
90	0x04	4
91	0xfd	-3
92	0x86	-122
93	0xa6	-90
94	0x18	24
95	0x10	16
96	0x3f	63
97	0x33	51
98	0xbc	-68
99	0xd5	-43
100	0x37	55
101	0x53	83
102	0x22	34
103	0xf5	-11
104	0xd9	-39
105	0x4b	75
106	0xb0	-80
107	0x29	41
108	0xf1	-15
109	0x8b	-117
110	0xce	-50
111	0x44	68
112	0xbc	-68
113	0xe5	-27
114	0xec	-20
115	0xe5	-27
116	0x3e	62
117	0x28	40
118	0xd1	-47
119	0xfe	-2
120	0x35	53
121	0x2c	44
122	0x39	57
123	0xe0	-32
124	0x1f	31
125	0xa8	-88
126	0xd6	-42
127	0xe1	-31
128	0x39	57
129	0x16	22
130	0x4a	74
131	0xdf	-33
132	0xfb	-5
133	0x36	54
134	0x36	54
135	0xbb	-69
136	0xed	-19
137	0x0b	11
138	0x97	-105
139	0xf6	-10
140	0x2d	45
141	0xf8	-8
142	0x9a	-102
143	0x07	7
144	0xe3	-29
145	0xf0	-16
146	0x0b	11
147	0x1c	28
148	0x02	2
149	0xfb	-5
150	0x66	102
151	0x46	70
152	0x29	41
153	0xe9	-23
154	0xec	-20
155	0x31	49
156	0xe4	-28
157	0x33	51
158	0xa6	-90
159	0x37	55
160	0x1a	26
161	0xee	-18
162	0x01	1
163	0x39	57
164	0xf6	-10
165	0xb6	-74
166	0xfc	-4
167	0xcc	-52
168	0xc3	-61
169	0x09	9
170	0xe4	-28
171	0xc7	-57
172	0x23	35
173	0xe5	-27
174	0x19	25
175	0x4f	79
176	0xe2	-30
177	0x96	-106
178	0x01	1
179	0xcd	-51
180	0x0f	15
181	0x99	-103
182	0x23	35
183	0x1b	27
184	0xa5	-91
185	0x56	86
186	0x1d	29
187	0x98	-104
188	0x00	0
189	0x68	104
190	0xe5	-27
191	0xc8	-56
192	0xc2	-62
193	0xb2	-78
194	0x00	0
195	0x61	97
196	0xd2	-46
197	0xfb	-5
198	0x1c	28
199	0xe5	-27
200	0xf0	-16
201	0x25	37
202	0xc7	-57
203	0x25	37
204	0x07	7
205	0xbd	-67
206	0x42	66
207	0x38	56
208	0x60	96
209	0xde	-34
210	0x14	20
211	0x09	9
212	0x29	41
213	0xd0	-48
214	0xe4	-28
215	0xf8	-8
216	0xa8	-88
217	0xf9	-7
218	0xc3	-61
219	0xcc	-52
220	0xcf	-49
221	0xe0	-32
222	0x36	54
223	0xea	-22
224	0x1e	30
225	0x30	48
226	0xf1	-15
227	0xa3	-93
228	0x07	7
229	0xaf	-81
230	0xcf	-49
231	0x05	5
232	0xfe	-2
233	0x4e	78
234	0x32	50
235	0x08	8
236	0xc2	-62
237	0xeb	-21
238	0xde	-34
239	0x15	21
240	0xdd	-35
241	0xd2	-46
242	0xfe	-2
243	0xc4	-60
244	0xde	-34
245	0xf5	-11
246	0xae	-82
247	0x46	70
248	0x52	82
249	0x18	24
250	0xdb	-37
251	0x02	2
252	0x48	72
253	0xf6	-10
254	0x2e	46
255	0x01	1

tfl.pseudo_qconst8 i1 [128] scale=0.00703565 zero_point=124
0	0x36	-0.49249548
1	0x03	-0.85131365
2	0x19	-0.6965293
3	0xe7	-1.0483118
4	0x58	-0.25328338
5	0x92	-1.646342
6	0x66	-0.15478429
7	0x7f	0.02110695
8	0xcb	-1.2453101
9	0x0b	-0.79502845
10	0x64	-0.1688556
11	0xd6	-1.1679178
12	0x02	-0.85834926
13	0x36	-0.49249548
14	0x1a	-0.68949366
15	0x68	-0.14071299
16	0x1c	-0.6754224
17	0x3c	-0.4502816
18	0x40	-0.422139
19	0xa9	-1.4845221
20	0x64	-0.1688556
21	0x6a	-0.12664169
22	0x5b	-0.23217644
23	0xf3	-0.96388406
24	0x1e	-0.6613511
25	0x48	-0.3658538
26	0x33	-0.51360244
27	0x81	-1.765948
28	0xfa	-0.91463447
29	0xbd	-1.3438091
30	0x45	-0.38696074
31	0xbe	-1.3367735
32	0x1c	-0.6754224
33	0xe8	-1.0412762
34	0x23	-0.62617284
35	0x33	-0.51360244
36	0x14	-0.7317076
37	0xfd	-0.8935275
38	0x38	-0.4784242
39	0x5b	-0.23217644
40	0x3b	-0.45731723
41	0xed	-1.0060979
42	0x3a	-0.46435288
43	0xfe	-0.8864919
44	0x09	-0.80909973
45	0x62	-0.1829269
46	0x3d	-0.44324595
47	0x44	-0.3939964
48	0x13	-0.73874325
49	0xeb	-1.0201693
50	0x48	-0.3658538
51	0xc2	-1.3086308
52	0x36	-0.49249548
53	0x3d	-0.44324595
54	0x9d	-1.5689499
55	0x4e	-0.3236399
56	0x30	-0.5347094
57	0x15	-0.72467196
58	0x22	-0.6332085
59	0x51	-0.30253294
60	0x2a	-0.5769233
61	0x2f	-0.54174507
62	0x33	-0.51360244
63	0x23	-0.62617284
64	0x00	-0.8724206
65	0xf5	-0.9498127
66	0x5d	-0.21810515
67	0x80	-1.7729838
68	0xf9	-0.92167014
69	0xbd	-1.3438091
70	0x65	-0.16181995
71	0xfe	-0.8864919
72	0xa4	-1.5197004
73	0x24	-0.61913717
74	0x14	-0.7317076
75	0x26	-0.6050659
76	0xe0	-1.0975614
77	0xf0	-0.98499095
78	0x51	-0.30253294
79	0x43	-0.40103203
80	0xca	-1.2523457
81	0x61	-0.18996255
82	0xc7	-1.2734526
83	0xff	-0.8794562
84	0x43	-0.40103203
85	0x10	-0.7598502
86	0x1a	-0.68949366
87	0x6b	-0.11960605
88	0x4d	-0.33067554
89	0x01	-0.86538494
90	0xfb	-0.90759885
91	0xa4	-1.5197004
92	0x3f	-0.42917463
93	0xf5	-0.9498127
94	0x24	-0.61913717
95	0x0f	-0.7668858
96	0x64	-0.1688556
97	0x49	-0.35881814
98	0x2d	-0.55581635
99	0x49	-0.35881814
100	0x26	-0.6050659
101	0x47	-0.37288943
102	0x9d	-1.5689499
103	0x40	-0.422139
104	0x56	-0.2673547
105	0x10	-0.7598502
106	0x70	-0.0844278
107	0xa0	-1.547843
108	0x4c	-0.3377112
109	0x55	-0.27439034
110	0xec	-1.0131335
111	0x24	-0.61913717
112	0x95	-1.6252351
113	0x4b	-0.34474683
114	0x03	-0.85131365
115	0xea	-1.0272049
116	0x4d	-0.33067554
117	0x60	-0.1969982
118	0xd8	-1.1538466
119	0x74	-0.0562852
120	0x1f	-0.6543154
121	0x01	-0.86538494
122	0x31	-0.5276737
123	0x94	-1.6322708
124	0x0f	-0.7668858
125	0x12	-0.74577886
126	0xe3	-1.0764544
127	0xec	-1.0131335

tfl.pseudo_qconst9 i1 [128] scale=0.097246535 zero_point=-128
0	0x98	2.333917
1	0xa5	3.598122
2	0x8e	1.3614515
3	0x8b	1.0697119
4	0xd7	8.460448
5	0x89	0.8752188
6	0x03	12.739296
7	0x7f	24.797867
8	0x8a	0.97246534
9	0x95	2.0421772
10	0x27	16.240171
11	0x8d	1.264205
12	0x88	0.7779723
13	0xa1	3.2091358
14	0x98	2.333917
15	0xca	7.196244
16	0xa9	3.987108
17	0x98	2.333917
18	0xc1	6.321025
19	0x8e	1.3614515
20	0x0e	13.809008
21	0xca	7.196244
22	0xe4	9.724653
23	0x8d	1.264205
24	0xa1	3.2091358
25	0xb7	5.3485594
26	0x92	1.7504376
27	0x9b	2.6256564
28	0x98	2.333917
29	0x8f	1.458698
30	0xaf	4.570587
31	0x9d	2.8201494
32	0x9d	2.8201494
33	0x8d	1.264205
34	0x91	1.6531911
35	0x9c	2.722903
36	0x8e	1.3614515
37	0x98	2.333917
38	0x98	2.333917
39	0xaa	4.0843544
40	0xb3	4.9595733
41	0x8d	1.264205
42	0x99	2.4311633
43	0x8e	1.3614515
44	0x90	1.5559446
45	0xa2	3.3063822
46	0xb5	5.1540666
47	0x8f	1.458698
48	0x91	1.6531911
49	0x8c	1.1669585
50	0xa4	3.5008752
51	0x88	0.7779723
52	0xa6	3.6953683
53	0xb2	4.8623266
54	0x8a	0.97246534
55	0xb4	5.05682
56	0x8f	1.458698
57	0x94	1.9449307
58	0xc4	6.6127644
59	0xb9	5.5430527
60	0x8e	1.3614515
61	0x9f	3.0146425
62	0x9e	2.917396
63	0x8d	1.264205
64	0x92	1.7504376
65	0x8e	1.3614515
66	0xdd	9.043928
67	0x92	1.7504376
68	0xa0	3.1118891
69	0x99	2.4311633
70	0xb3	4.9595733
71	0x89	0.8752188
72	0x8a	0.97246534
73	0x95	2.0421772
74	0x9b	2.6256564
75	0xa3	3.4036288
76	0x96	2.1394238
77	0x96	2.1394238
78	0xaa	4.0843544
79	0x9e	2.917396
80	0x8c	1.1669585
81	0x16	14.58698
82	0x98	2.333917
83	0x90	1.5559446
84	0xad	4.376094
85	0x8f	1.458698
86	0x89	0.8752188
87	0xb7	5.3485594
88	0xb0	4.667834
89	0x95	2.0421772
90	0x9c	2.722903
91	0x8b	1.0697119
92	0xa1	3.2091358
93	0x97	2.2366703
94	0x9c	2.722903
95	0x9c	2.722903
96	0xd2	7.974216
97	0xa0	3.1118891
98	0x91	1.6531911
99	0xb0	4.667834
100	0x96	2.1394238
101	0x98	2.333917
102	0x8f	1.458698
103	0x9a	2.52841
104	0xc3	6.5155177
105	0x92	1.7504376
106	0x57	20.908005
107	0x8a	0.97246534
108	0x98	2.333917
109	0xf7	11.572338
110	0x8a	0.97246534
111	0x91	1.6531911
112	0x88	0.7779723
113	0xa3	3.4036288
114	0x91	1.6531911
115	0x95	2.0421772
116	0xa6	3.6953683
117	0xab	4.181601
118	0x95	2.0421772
119	0x6c	22.950182
120	0x94	1.9449307
121	0x94	1.9449307
122	0x9c	2.722903
123	0x8f	1.458698
124	0x8e	1.3614515
125	0x99	2.4311633
126	0x92	1.7504376
127	0x8f	1.458698

tfl.pseudo_qconst11 i1 [128, 1, 3, 84]
0	0x33	51
1	0xdf	-33
2	0x3b	59
3	0xe8	-24
4	0xfb	-5
5	0xd1	-47
6	0xd6	-42
7	0x03	3
8	0xfa	-6
9	0xeb	-21
10	0xd8	-40
11	0x06	6
12	0x09	9
13	0xcc	-52
14	0x4c	76
15	0x4f	79
16	0x26	38
17	0x3c	60
18	0x01	1
19	0xd9	-39
20	0xc9	-55
21	0xe3	-29
22	0x9a	-102
23	0x10	16
24	0xd8	-40
25	0x50	80
26	0xc5	-59
27	0x0c	12
28	0x81	-127
29	0xd6	-42
30	0xd6	-42
31	0xf2	-14
32	0xba	-70
33	0xe2	-30
34	0xe0	-32
35	0x5b	91
36	0xbf	-65
37	0x0a	10
38	0x08	8
39	0xba	-70
40	0x0c	12
41	0x03	3
42	0x1c	28
43	0x1b	27
44	0xf3	-13
45	0xe8	-24
46	0x0e	14
47	0xbe	-66
48	0xd9	-39
49	0x15	21
50	0x08	8
51	0x24	36
52	0xf5	-11
53	0x9e	-98
54	0x11	17
55	0xc1	-63
56	0xde	-34
57	0xdb	-37
58	0x01	1
59	0x3d	61
60	0xa6	-90
61	0xef	-17
62	0xf5	-11
63	0x5d	93
64	0x1d	29
65	0xea	-22
66	0x1d	29
67	0xe9	-23
68	0xed	-19
69	0x0a	10
70	0xef	-17
71	0xa2	-94
72	0xa7	-89
73	0x26	38
74	0x01	1
75	0xb0	-80
76	0x42	66
77	0xbe	-66
78	0xf4	-12
79	0xd3	-45
80	0x0d	13
81	0xc7	-57
82	0x2e	46
83	0x00	0
84	0x23	35
85	0x63	99
86	0x10	16
87	0x1b	27
88	0x18	24
89	0x11	17
90	0xe8	-24
91	0x37	55
92	0xe1	-31
93	0xb5	-75
94	0xe0	-32
95	0x14	20
96	0xc2	-62
97	0xb9	-71
98	0xe8	-24
99	0xa4	-92
100	0xd7	-41
101	0x39	57
102	0xd4	-44
103	0xc8	-56
104	0xb1	-79
105	0x23	35
106	0x26	38
107	0xa7	-89
108	0x8e	-114
109	0x0d	13
110	0xf3	-13
111	0x25	37
112	0xf3	-13
113	0xe4	-28
114	0x3e	62
115	0x16	22
116	0xe0	-32
117	0x6a	106
118	0xcf	-49
119	0xf5	-11
120	0x46	70
121	0x37	55
122	0xc0	-64
123	0xad	-83
124	0xca	-54
125	0x54	84
126	0xfe	-2
127	0xd8	-40
128	0xb6	-74
129	0x9c	-100
130	0xfe	-2
131	0xff	-1
132	0x41	65
133	0x00	0
134	0xef	-17
135	0xd9	-39
136	0x11	17
137	0xd6	-42
138	0x6d	109
139	0x13	19
140	0x24	36
141	0xbc	-68
142	0x41	65
143	0x0d	13
144	0x14	20
145	0x39	57
146	0x0c	12
147	0x4d	77
148	0xd7	-41
149	0xd9	-39
150	0x1c	28
151	0xab	-85
152	0x0b	11
153	0xbb	-69
154	0xe6	-26
155	0xec	-20
156	0x4d	77
157	0xc6	-58
158	0xa6	-90
159	0x05	5
160	0x27	39
161	0xc4	-60
162	0x4e	78
163	0xcb	-53
164	0x49	73
165	0xee	-18
166	0x01	1
167	0x09	9
168	0x04	4
169	0x17	23
170	0x23	35
171	0xb1	-79
172	0xce	-50
173	0xd2	-46
174	0xde	-34
175	0x18	24
176	0x17	23
177	0xef	-17
178	0xaa	-86
179	0x1a	26
180	0x07	7
181	0xb5	-75
182	0xce	-50
183	0xf1	-15
184	0x98	-104
185	0xd5	-43
186	0x1b	27
187	0x09	9
188	0xae	-82
189	0xe7	-25
190	0xe9	-23
191	0xa1	-95
192	0x17	23
193	0xc9	-55
194	0x85	-123
195	0xd8	-40
196	0x96	-106
197	0xeb	-21
198	0xa5	-91
199	0x16	22
200	0x0f	15
201	0x1f	31
202	0x38	56
203	0xdb	-37
204	0xda	-38
205	0xed	-19
206	0xc6	-58
207	0x29	41
208	0x28	40
209	0x3e	62
210	0x02	2
211	0x10	16
212	0xc8	-56
213	0x27	39
214	0xb5	-75
215	0xd0	-48
216	0xea	-22
217	0x51	81
218	0x29	41
219	0xdb	-37
220	0x60	96
221	0xf7	-9
222	0x32	50
223	0xfc	-4
224	0x1b	27
225	0xf6	-10
226	0x2e	46
227	0xd4	-44
228	0xf7	-9
229	0x38	56
230	0x1a	26
231	0x02	2
232	0x6d	109
233	0x1a	26
234	0xb6	-74
235	0x2f	47
236	0x13	19
237	0x50	80
238	0x3c	60
239	0x2e	46
240	0x04	4
241	0xd6	-42
242	0x76	118
243	0xe7	-25
244	0x68	104
245	0x11	17
246	0xc1	-63
247	0x45	69
248	0x0f	15
249	0xfe	-2
250	0xc7	-57
251	0x15	21
252	0xe5	-27
253	0x3f	63
254	0x20	32
255	0xe3	-29
