models/gesture_model.tflite (tflite, 76752 bytes, 8 tensors)

sequential/dense_1/MatMul i1 [15, 64] scale=0.0032950428 zero_point=0
000000 23 e5 5c 52 c9 44 4b fa 36 ad 11 4d be 54 e6 e0
       0.115326494 -0.08896615 0.30314395 0.27019352 -0.18122736 0.2240629 0.2471282 -0.019770257 0.1779323 -0.27348855 0.056015726 0.2537183 -0.21747282 0.2767836 -0.08567111 -0.10544137
000010 e4 42 c6 d5 d1 f4 e5 96 22 04 36 47 d8 03 3e c3
       -0.092261195 0.21747282 -0.19111249 -0.14168684 -0.15486701 -0.039540514 -0.08896615 -0.34927455 0.11203145 0.013180171 0.1779323 0.23394804 -0.13180171 0.009885129 0.20429265 -0.2009976
000020 1d 0e 3e da e9 33 2b 1d f8 08 9b 1d 2c c8 32 e9
       0.095556244 0.046130598 0.20429265 -0.12521163 -0.07578599 0.16804717 0.14168684 0.095556244 -0.026360342 0.026360342 -0.33279932 0.095556244 0.14498188 -0.18452239 0.16475214 -0.07578599
000030 9f fa c6 f2 94 03 99 30 0c e0 d6 0c d9 b1 a3 fc
       -0.31961915 -0.019770257 -0.19111249 -0.046130598 -0.3558646 0.009885129 -0.3393894 0.15816206 0.039540514 -0.10544137 -0.1383918 0.039540514 -0.12850668 -0.26030838 -0.30643898 -0.013180171
000040 02 06 d3 5c 47 29 28 38 15 47 61 49 b0 bd 43 b1
       0.0065900856 0.019770257 -0.14827693 0.30314395 0.23394804 0.13509676 0.13180171 0.18452239 0.0691959 0.23394804 0.31961915 0.24053812 -0.26360342 -0.22076787 0.22076787 -0.26030838
000050 33 e4 1c 12 17 d8 c1 d1 93 c5 ca ba fd e4 00 a9
       0.16804717 -0.092261195 0.092261195 0.05931077 0.07578599 -0.13180171 -0.20758769 -0.15486701 -0.35915968 -0.19440752 -0.1779323 -0.23065299 -0.009885129 -0.092261195 0.0 -0.28666872
000060 3a f6 00 35 26 3d b1 b5 ba 12 c8 01 f3 27 eb 38
       0.19111249 -0.032950427 0.0 0.17463727 0.12521163 0.2009976 -0.26030838 -0.2471282 -0.23065299 0.05931077 -0.18452239 0.0032950428 -0.042835556 0.12850668 -0.0691959 0.18452239
000070 9e c3 3e db f4 c3 e2 41 60 53 b5 cb bc c3 c4 d1
       -0.32291418 -0.2009976 0.20429265 -0.121916585 -0.039540514 -0.2009976 -0.098851286 0.21417779 0.3163241 0.27348855 -0.2471282 -0.17463727 -0.2240629 -0.2009976 -0.19770257 -0.15486701
000080 c5 d8 0d dc b3 b3 bd bf c5 c5 aa 02 b2 31 1e bf
       -0.19440752 -0.13180171 0.042835556 -0.11862154 -0.2537183 -0.2537183 -0.22076787 -0.21417779 -0.19440752 -0.19440752 -0.28337368 0.0065900856 -0.25701335 0.16145709 0.098851286 -0.21417779
000090 16 4a 25 2a 34 ee 33 a8 c1 af 5b 42 0d 47 fb 1f
       0.07249094 0.24383317 0.121916585 0.1383918 0.17134222 -0.05931077 0.16804717 -0.28996375 -0.20758769 -0.26689845 0.29984888 0.21747282 0.042835556 0.23394804 -0.016475214 0.10214633
0000a0 d2 69 22 08 ba 9d 1f fa 43 eb ea f7 d2 f6 34 e3
       -0.15157197 0.34597948 0.11203145 0.026360342 -0.23065299 -0.32620925 0.10214633 -0.019770257 0.22076787 -0.0691959 -0.07249094 -0.029655386 -0.15157197 -0.032950427 0.17134222 -0.095556244
0000b0 5d c4 be 2e 53 da 3d df c1 ce d2 de 08 58 58 af
       0.30643898 -0.19770257 -0.21747282 0.15157197 0.27348855 -0.12521163 0.2009976 -0.10873641 -0.20758769 -0.16475214 -0.15157197 -0.11203145 0.026360342 0.28996375 0.28996375 -0.26689845
0000c0 e8 0c 01 4d 9f 03 f2 ec 06 18 29 e2 c3 cd 15 6e
       -0.07908103 0.039540514 0.0032950428 0.2537183 -0.31961915 0.009885129 -0.046130598 -0.065900855 0.019770257 0.07908103 0.13509676 -0.098851286 -0.2009976 -0.16804717 0.0691959 0.3624547
0000d0 ef 03 b3 9e dd 50 75 57 4f d1 c5 fb 07 bd ce a1
       -0.056015726 0.009885129 -0.2537183 -0.32291418 -0.115326494 0.26360342 0.38552 0.28666872 0.26030838 -0.15486701 -0.19440752 -0.016475214 0.023065299 -0.22076787 -0.16475214 -0.31302905
0000e0 f1 b4 a3 e4 19 b6 d3 ec bb f3 fa d6 72 b1 1b d8
       -0.049425643 -0.25042325 -0.30643898 -0.092261195 0.08237607 -0.24383317 -0.14827693 -0.065900855 -0.22735795 -0.042835556 -0.019770257 -0.1383918 0.37563488 -0.26030838 0.08896615 -0.13180171
0000f0 05 0d e1 38 24 50 9b d4 b5 ee ec b4 97 a6 66 d9
       0.016475214 0.042835556 -0.10214633 0.18452239 0.11862154 0.26360342 -0.33279932 -0.14498188 -0.2471282 -0.05931077 -0.065900855 -0.25042325 -0.34597948 -0.29655385 0.33609435 -0.12850668

sequential/dense/MatMul i1 [64, 64] scale=0.0040991013 zero_point=0
000000 0f 0f 0f e8 ce 3f c4 15 ba 19 f4 b8 36 6f f4 01
       0.06148652 0.06148652 0.06148652 -0.098378435 -0.20495507 0.25824338 -0.24594608 0.086081125 -0.2869371 0.102477536 -0.049189217 -0.2951353 0.22135147 0.45500025 -0.049189217 0.0040991013
000010 15 be 07 f6 11 32 93 f5 ff 2c 1b 32 e1 57 3b de
       0.086081125 -0.27054068 0.02869371 -0.040991012 0.06968472 0.20495507 -0.44680205 -0.045090113 -0.0040991013 0.18036045 0.11067574 0.20495507 -0.12707214 0.3566218 0.24184698 -0.13936944
000020 1f ed cc d9 a3 1a 43 0d bc de dc 40 d6 42 a0 54
       0.12707214 -0.07788292 -0.21315327 -0.15986495 -0.3812164 0.10657664 0.2746398 0.05328832 -0.2787389 -0.13936944 -0.14756764 0.26234248 -0.17216225 0.27054068 -0.39351374 0.3443245
000030 55 f9 39 cd b3 ef 12 3e d0 d4 4a 28 aa 0b 02 30
       0.3484236 -0.02869371 0.23364878 -0.20905417 -0.3156308 -0.06968472 0.07378382 0.25414428 -0.19675687 -0.18036045 0.3033335 0.16396405 -0.3525227 0.045090113 0.008198203 0.19675687
000040 59 44 53 c7 eb 1f cf 3b f8 0a 60 10 e3 2f 0b a2
       0.36482 0.2787389 0.3402254 -0.23364878 -0.086081125 0.12707214 -0.20085597 0.24184698 -0.03279281 0.040991012 0.39351374 0.06558562 -0.11887394 0.19265775 0.045090113 -0.3853155
000050 ce 3a 1a eb d7 2e 41 bb 16 21 eb cd 02 fa 49 a5
       -0.20495507 0.23774788 0.10657664 -0.086081125 -0.16806315 0.18855865 0.26644158 -0.282838 0.090180226 0.13527034 -0.086081125 -0.20905417 0.008198203 -0.024594609 0.2992344 -0.3730182
000060 2f 07 ef 10 7b 2a 09 c6 fc 3a 12 3f ea 73 04 9b
       0.19265775 0.02869371 -0.06968472 0.06558562 0.50418943 0.17216225 0.03689191 -0.23774788 -0.016396405 0.23774788 0.07378382 0.25824338 -0.090180226 0.47139665 0.016396405 -0.41400924
000070 3b 07 2b ec 4a 09 ca 12 32 6f f2 d3 16 df 9f c5
       0.24184698 0.02869371 0.17626135 -0.081982024 0.3033335 0.03689191 -0.22135147 0.07378382 0.20495507 0.45500025 -0.05738742 -0.18445955 0.090180226 -0.13527034 -0.39761284 -0.24184698
000080 ad 31 ac 44 28 c0 2a ae f7 d5 16 e2 ff cf 1a 09
       -0.3402254 0.20085597 -0.3443245 0.2787389 0.16396405 -0.26234248 0.17216225 -0.3361263 -0.03689191 -0.17626135 0.090180226 -0.12297304 -0.0040991013 -0.20085597 0.10657664 0.03689191
000090 d5 e1 14 41 67 d8 dd fd ec 17 20 fe bf e2 51 48
       -0.17626135 -0.12707214 0.081982024 0.26644158 0.42220744 -0.16396405 -0.14346854 -0.012297304 -0.081982024 0.09427933 0.13117124 -0.008198203 -0.26644158 -0.12297304 0.3320272 0.2951353
0000a0 3c fe 11 02 d6 f6 d3 2b 30 f8 0c c6 11 23 26 d9
       0.24594608 -0.008198203 0.06968472 0.008198203 -0.17216225 -0.040991012 -0.18445955 0.17626135 0.19675687 -0.03279281 0.049189217 -0.23774788 0.06968472 0.14346854 0.15576585 -0.15986495
0000b0 cb c5 f0 0f 00 0f d7 aa 0a e8 43 42 4f 15 37 b7
       -0.21725237 -0.24184698 -0.06558562 0.06148652 0.0 0.06148652 -0.16806315 -0.3525227 0.040991012 -0.098378435 0.2746398 0.27054068 0.323829 0.086081125 0.22545058 -0.2992344
0000c0 0a 50 e6 15 c9 d4 6a 35 db 00 14 fa 11 3f f3 bf
       0.040991012 0.3279281 -0.10657664 0.086081125 -0.22545058 -0.18036045 0.43450475 0.21725237 -0.15166675 0.0 0.081982024 -0.024594609 0.06968472 0.25824338 -0.05328832 -0.26644158
0000d0 d5 c7 2d 54 d9 36 08 4f 0d f0 a0 4a 40 e9 9d 6a
       -0.17626135 -0.23364878 0.18445955 0.3443245 -0.15986495 0.22135147 0.03279281 0.323829 0.05328832 -0.06558562 -0.39351374 0.3033335 0.26234248 -0.09427933 -0.40581104 0.43450475
0000e0 14 e5 6b f1 c0 02 06 0a c7 d5 08 c3 ba 5b ef e7
       0.081982024 -0.11067574 0.43860385 -0.06148652 -0.26234248 0.008198203 0.024594609 0.040991012 -0.23364878 -0.17626135 0.03279281 -0.25004518 -0.2869371 0.3730182 -0.06968472 -0.102477536
0000f0 2a af 23 bb fb 27 d1 d1 4f ff 42 cc f7 e1 33 c7
       0.17216225 -0.3320272 0.14346854 -0.282838 -0.020495506 0.15986495 -0.19265775 -0.19265775 0.323829 -0.0040991013 0.27054068 -0.21315327 -0.03689191 -0.12707214 0.20905417 -0.23364878

sequential/batch_normalization_1/batchnorm/sub i1 [64] scale=0.0038708448 zero_point=127
000000 bf b0 ac b3 bc 8e c8 80 ac b2 b5 b2 a5 c3 bc a5
       -0.7432022 -0.8012649 -0.81674826 -0.78965235 -0.75481474 -0.9328736 -0.7083646 -0.98706543 -0.81674826 -0.7935232 -0.78191066 -0.7935232 -0.8438442 -0.72771883 -0.75481474 -0.8438442
000010 c9 89 c0 c1 92 83 c6 bd bd a5 86 b3 92 bc b1 b1
       -0.70449376 -0.95222783 -0.73933136 -0.7354605 -0.9173902 -0.9754529 -0.7161063 -0.7509439 -0.7509439 -0.8438442 -0.96384037 -0.78965235 -0.9173902 -0.75481474 -0.79739404 -0.79739404
000020 be be a6 af b4 a2 a0 96 98 8f ae 9d 8e a9 96 be
       -0.74707305 -0.74707305 -0.83997333 -0.8051357 -0.7857815 -0.8554567 -0.8631984 -0.90190685 -0.89416516 -0.92900276 -0.8090066 -0.87481093 -0.9328736 -0.8283608 -0.90190685 -0.74707305
000030 ad 8b b2 d2 ad c7 c0 95 b4 af 91 b6 c0 a8 bf 9b
       -0.8128774 -0.94448614 -0.7935232 -0.66965616 -0.8128774 -0.71223545 -0.73933136 -0.9057777 -0.7857815 -0.8051357 -0.9212611 -0.7780398 -0.73933136 -0.83223164 -0.7432022 -0.8825526

sequential/batch_normalization_1/batchnorm/mul i1 [64] scale=0.0048245336 zero_point=-128
000000 55 35 43 41 3a 63 10 1a 50 09 15 27 7e 12 30 47
       1.0276257 0.8732406 0.94078404 0.931135 0.89736325 1.0951691 0.69473284 0.74297816 1.003503 0.6609611 0.7188555 0.8056971 1.2254316 0.7043819 0.84911793 0.9600822
000010 21 7f 6c 56 4a 06 2b 4c 27 29 3c 28 53 1b 71 3b
       0.7767499 1.2302561 1.13859 1.0324502 0.9745558 0.6464875 0.8249952 0.9842048 0.8056971 0.8153462 0.90701234 0.81052166 1.0179766 0.74780273 1.1627126 0.90218776
000020 29 59 04 2b 30 41 2e 4b 23 33 37 2f 6e 1d 48 31
       0.8153462 1.0469238 0.63683844 0.8249952 0.84911793 0.931135 0.83946884 0.9793803 0.78639895 0.8635915 0.8828896 0.84429336 1.148239 0.7574518 0.9649067 0.85394245
000030 67 5c 38 e3 68 4a 1e 2c 22 5e 4e 5b 2c 46 2e 3e
       1.1144673 1.0613974 0.8877142 0.47762883 1.1192918 0.9745558 0.7622763 0.8298198 0.7815744 1.0710465 0.9938539 1.0565729 0.8298198 0.95525765 0.83946884 0.9166614

sequential/conv1d_1/Conv1D i1 [64, 1, 3, 128]
000000 ed 1c 37 fd f2 32 ba 09 d0 09 25 1c ac 03 1e 1c
       -19 28 55 -3 -14 50 -70 9 -48 9 37 28 -84 3 30 28
000010 e4 0d 19 17 0a d9 ea fa 18 f5 fa ca c1 f8 bf ad
       -28 13 25 23 10 -39 -22 -6 24 -11 -6 -54 -63 -8 -65 -83
000020 ad e2 d7 3e 01 e7 28 04 ea de ab b5 0b 1f 0e ef
       -83 -30 -41 62 1 -25 40 4 -22 -34 -85 -75 11 31 14 -17
000030 d8 0d 0c b1 bf c9 e3 0c cc 7f 17 f8 eb d8 fb 56
       -40 13 12 -79 -65 -55 -29 12 -52 127 23 -8 -21 -40 -5 86
000040 f1 c8 1a b7 2d e6 eb ef c1 23 ed fb e3 f3 f2 ec
       -15 -56 26 -73 45 -26 -21 -17 -63 35 -19 -5 -29 -13 -14 -20
000050 e5 09 43 3c 3c 1d 10 eb 2e 27 c5 39 04 3e f3 ff
       -27 9 67 60 60 29 16 -21 46 39 -59 57 4 62 -13 -1
000060 eb 14 b6 eb e2 ca 0d da f6 b5 e8 07 f1 d7 cb fe
       -21 20 -74 -21 -30 -54 13 -38 -10 -75 -24 7 -15 -41 -53 -2
000070 12 d8 54 5a f1 12 b5 cd dc 52 44 ed 32 11 90 ad
       18 -40 84 90 -15 18 -75 -51 -36 82 68 -19 50 17 -112 -83
000080 12 98 e8 02 e7 0a 17 3c a3 1f e4 c3 bd 08 08 46
       18 -104 -24 2 -25 10 23 60 -93 31 -28 -61 -67 8 8 70
000090 e7 2b cb f9 05 f8 ad fd 00 11 1f f6 d6 10 24 ee
       -25 43 -53 -7 5 -8 -83 -3 0 17 31 -10 -42 16 36 -18
0000a0 aa 1b 01 cc da f4 15 26 eb 1a 47 c3 bc d9 ea c7
       -86 27 1 -52 -38 -12 21 38 -21 26 71 -61 -68 -39 -22 -57
0000b0 a2 47 d5 44 f4 06 09 d6 ca 27 3e c1 f4 2b ec 48
       -94 71 -43 68 -12 6 9 -42 -54 39 62 -63 -12 43 -20 72
0000c0 ec c0 03 da e8 24 1b f0 c7 d9 f0 1a 2b e0 23 d8
       -20 -64 3 -38 -24 36 27 -16 -57 -39 -16 26 43 -32 35 -40
0000d0 0f ff 24 c1 f8 ba ef 24 f9 f6 be 09 d7 0f 00 23
       15 -1 36 -63 -8 -70 -17 36 -7 -10 -66 9 -41 15 0 35
0000e0 f6 dd d9 ef 13 3b 11 f5 d8 2a 3b 1c fe 0c d3 f3
       -10 -35 -39 -17 19 59 17 -11 -40 42 59 28 -2 12 -45 -13
0000f0 12 16 fb a9 2b fe d3 cb b2 b7 c7 13 df 37 fb 10
       18 22 -5 -87 43 -2 -45 -53 -78 -73 -57 19 -33 55 -5 16

sequential/batch_normalization/batchnorm/sub i1 [128] scale=0.00873782 zero_point=125
000000 62 1a 70 dc 0f 64 c7 32 37 24 ea 17 0d 37 62 14
       -0.23592114 -0.8650442 -0.11359166 -1.4067891 -0.96116024 -0.21844551 -1.5902833 -0.6553365 -0.6116474 -0.777666 -1.2844596 -0.89125764 -0.97863585 -0.6116474 -0.23592114 -0.9174711
000010 d8 7c 6f 28 fb 62 ff 65 fa 3f ce b0 83 7c 3c 42
       -1.4417403 -0.00873782 -0.12232948 -0.7427147 -1.1359166 -0.23592114 -1.1009654 -0.20970768 -1.1446544 -0.5417448 -1.5291185 -1.7912531 -2.1844552 -0.00873782 -0.5679583 -0.5155314
000020 44 77 45 62 e1 7d 1f 6b 4b 40 29 1d 63 d6 7a ca
       -0.49805576 -0.05242692 -0.48931792 -0.23592114 -1.3630999 0.0 -0.8213551 -0.15728076 -0.43689102 -0.533007 -0.7339769 -0.8388307 -0.22718333 -1.459216 -0.02621346 -1.5640699
000030 43 4e 24 23 d3 bf 5e 56 ac 6f 61 18 74 16 f9 50
       -0.50679356 -0.41067755 -0.777666 -0.78640383 -1.4854294 -1.6601858 -0.2708724 -0.34077498 -1.8262044 -0.12232948 -0.24465896 -0.88251984 -0.07864038 -0.8999955 -1.1533923 -0.39320192
000040 58 50 92 65 7f 08 dd e8 3e 1c 79 08 1d 5f 79 7b
       -0.32329935 -0.39320192 -2.0533876 -0.20970768 0.01747564 -1.0223249 -1.3980513 -1.3019352 -0.5504827 -0.8475686 -0.03495128 -1.0223249 -0.8388307 -0.2621346 -0.03495128 -0.01747564
000050 50 62 68 d5 44 78 5d 2d d3 4e 5d 15 1d 78 2a e2
       -0.39320192 -0.23592114 -0.18349423 -1.4679538 -0.49805576 -0.043689102 -0.27961025 -0.69902563 -1.4854294 -0.41067755 -0.27961025 -0.9087333 -0.8388307 -0.043689102 -0.7252391 -1.3543621
000060 32 39 0f 3a 4f 80 77 4f c1 c3 da df e4 2f 61 77
       -0.6553365 -0.59417176 -0.96116024 -0.58543396 -0.40193972 -2.2106686 -0.05242692 -0.40193972 -1.6427102 -1.6252346 -1.4242647 -1.3805755 -1.3368865 -0.68154997 -0.24465896 -0.05242692
000070 9e 76 27 7b 14 3e 6e 15 5c 0c 54 e7 47 23 5c 5d
       -1.9485339 -0.06116474 -0.75145257 -0.01747564 -0.9174711 -0.5504827 -0.1310673 -0.9087333 -0.28834808 -0.9873737 -0.35825062 -1.310673 -0.4718423 -0.78640383 -0.28834808 -0.27961025

sequential/batch_normalization/batchnorm/mul i1 [128] scale=0.1273889 zero_point=-128
000000 fa 8d 16 89 8b 0f 8a 96 b2 8e 87 87 96 8c a7 8f
       15.541445 1.6560557 19.108334 1.1465001 1.4012778 18.216612 1.273889 2.8025556 6.369445 1.7834445 0.89172226 0.89172226 2.8025556 1.5286667 4.968167 1.9108334
000010 8a 55 3e 97 8c ac 88 c9 89 8d 87 8b 87 7f bf 98
       1.273889 27.133835 24.20389 2.9299445 1.5286667 5.605111 1.0191112 9.299389 1.1465001 1.6560557 0.89172226 1.4012778 0.89172226 32.48417 8.0255 3.0573335
000020 be 76 a4 98 91 79 a8 f1 91 a7 8c 9f e5 89 5a 87
       7.8981113 31.337667 4.5860004 3.0573335 2.1656113 31.719835 5.095556 14.394945 2.1656113 4.968167 1.5286667 3.9490557 12.866279 1.1465001 27.770779 0.89172226
000030 8b a2 8d 91 8b 8d a9 94 8e 0a d2 96 2c 9b 8f ee
       1.4012778 4.3312225 1.6560557 2.1656113 1.4012778 1.6560557 5.2229447 2.547778 1.7834445 17.579668 10.445889 2.8025556 21.91089 3.4395 1.9108334 14.012778
000040 ac 96 88 cb 7e 93 8b 89 8f 8e 7d 8d 91 98 74 75
       5.605111 2.8025556 1.0191112 9.554167 32.35678 2.420389 1.4012778 1.1465001 1.9108334 1.7834445 32.22939 1.6560557 2.1656113 3.0573335 31.08289 31.21028
000050 99 b4 0c 89 af 74 9e 9b 8a a1 a9 88 91 05 8a 89
       3.1847224 6.6242228 17.834446 1.1465001 5.987278 31.08289 3.8216667 3.4395 1.273889 4.2038336 5.2229447 1.0191112 2.1656113 16.942722 1.273889 1.1465001
000060 aa 9b 8f 89 cf 8d 38 a3 8c 93 87 90 92 9d a2 4f
       5.3503337 3.4395 1.9108334 1.1465001 10.063723 1.6560557 23.439556 4.4586115 1.5286667 2.420389 0.89172226 2.0382223 2.2930002 3.694278 4.3312225 26.369501
000070 88 4c a2 6e 89 9c 04 94 98 88 92 8d 8e 93 9c ba
       1.0191112 25.987335 4.3312225 30.318558 1.1465001 3.566889 16.815334 2.547778 3.0573335 1.0191112 2.2930002 1.6560557 1.7834445 2.420389 3.566889 7.388556

sequential/conv1d/Conv1D i1 [128, 1, 3, 86]
000000 5e 2a 1f e0 ce 3b 0c 5e ff fb 81 2a 2d d3 1c 2d
       94 42 31 -32 -50 59 12 94 -1 -5 -127 42 45 -45 28 45
000010 4a 2c bf 1e 34 4a f2 36 c4 b2 27 64 0b 4a cf f1
       74 44 -65 30 52 74 -14 54 -60 -78 39 100 11 74 -49 -15
000020 00 16 1c 2c 3d 0f 41 56 07 d5 06 0f 5b 1f d0 2f
       0 22 28 44 61 15 65 86 7 -43 6 15 91 31 -48 47
000030 fb 41 fe 3a 2d 13 e1 c5 f4 f5 f8 aa bf 1b 43 28
       -5 65 -2 58 45 19 -31 -59 -12 -11 -8 -86 -65 27 67 40
000040 e6 55 e8 3c 20 19 ba 43 37 17 49 07 92 ec 6a dd
       -26 85 -24 60 32 25 -70 67 55 23 73 7 -110 -20 106 -35
000050 2a 32 dc f8 07 14 53 09 f2 32 f9 be 30 bd d5 1e
       42 50 -36 -8 7 20 83 9 -14 50 -7 -66 48 -67 -43 30
000060 09 d3 4d 2b 83 bd 4f 3c d7 22 41 20 53 44 18 eb
       9 -45 77 43 -125 -67 79 60 -41 34 65 32 83 68 24 -21
000070 da 15 26 f2 b2 49 ee 65 a6 e4 21 fa ca e3 c4 b2
       -38 21 38 -14 -78 73 -18 101 -90 -28 33 -6 -54 -29 -60 -78
000080 d4 31 c8 58 d1 6b f3 c1 d8 25 76 88 1d d0 e9 51
       -44 49 -56 88 -47 107 -13 -63 -40 37 118 -120 29 -48 -23 81
000090 5c 2f 48 87 02 11 ef 1e 25 03 eb d3 0f 0a 62 fc
       92 47 72 -121 2 17 -17 30 37 3 -21 -45 15 10 98 -4
0000a0 51 1a 0f 03 a7 f7 df 0b 4f fd 09 de f8 1d df b2
       81 26 15 3 -89 -9 -33 11 79 -3 9 -34 -8 29 -33 -78
0000b0 27 a8 9a cc d9 db 38 f0 0d ef ea 1e d4 4f 17 49
       39 -88 -102 -52 -39 -37 56 -16 13 -17 -22 30 -44 79 23 73
0000c0 48 33 bb 3f 00 d5 b6 0d f1 fd c7 0b 18 03 ab 0a
       72 51 -69 63 0 -43 -74 13 -15 -3 -57 11 24 3 -85 10
0000d0 a5 1b 08 25 0b 29 10 16 e9 2a e5 0d 17 2f 4d 05
       -91 27 8 37 11 41 16 22 -23 42 -27 13 23 47 77 5
0000e0 dd cc 52 e9 60 c7 fa f7 36 c6 f8 c1 df 5a ff e7
       -35 -52 82 -23 96 -57 -6 -9 54 -58 -8 -63 -33 90 -1 -25
0000f0 2f de 22 fc e7 ea 6d d6 45 20 ce 18 27 28 28 42
       47 -34 34 -4 -25 -22 109 -42 69 32 -50 24 39 40 40 66
