models/gesture_model.tflite (tflite, 91856 bytes, 8 tensors)

sequential/dense_1/BiasAdd/ReadVariableOp f4 [64]
0.047334693 0.06588108 0.08854747 0.08889801 0.114701696 0.05328714 0.017587055 0.1794769
0.0037549548 0.092588566 0.061659332 -0.060670987 0.013713331 0.101107076 -0.00880128 0.06759042
0.039391283 0.04208197 -0.047141995 0.055605475 0.0055895275 -0.011926376 0.040707964 0.05324453
0.079311796 0.02384217 0.13417666 0.14283961 0.038252708 -0.04105262 0.118763514 0.07093707
0.14775474 0.16596587 -0.00019751396 0.11313692 -0.047480617 -0.089676365 0.03252125 -0.030905435
0.081350334 0.12115329 0.034478277 -0.046494707 -0.01079914 0.052285388 0.08871121 0.10305415
0.0013885692 0.023163546 0.09521112 0.03578855 0.08493298 0.101329535 0.15538895 0.07430146
-0.06880509 0.046604335 0.03347108 0.045808613 0.088336915 0.11508164 0.086933024 -0.045836102
00000000: 06e2 413d a9ec 863d 6058 b53d 2910 b63d
00000010: b9e8 ea3d 9e43 5a3d ba12 903c cbc8 373e
00000020: b015 763b 139f bd3d 7f8e 7c3d 2482 78bd
00000030: e1ad 603c 3a11 cf3d 3e33 10bc d96c 8a3d
00000040: c158 213d 255e 2c3d f717 41bd 91c2 633d
00000050: 5b28 b73b d966 43bc 65bd 263d f016 5a3d
00000060: 396e a23d a850 c33c 9b65 093e 8c44 123e
00000070: dfae 1c3d cb26 28bd 493a f33d 7447 913d
00000080: 054d 173e f5f2 293e c01b 4fb9 54b4 e73d
00000090: 097b 42bd 3ea8 b7bd 0135 053d 652d fdbc
000000a0: 019b a63d 371f f83d 1839 0d3d 3c71 3ebd
000000b0: e0ee 30bc 3429 563d 39ae b53d 0e0e d33d
000000c0: a700 b63a 7ac1 bd3c 0cfe c23d 0497 123d
000000d0: 58f1 ad3d dc85 cf3d 481e 1f3e 5d2b 983d
000000e0: afe9 8cbd 30e4 3e3d f918 093d d0a1 3b3d
000000f0: fce9 b43d ecaf eb3d f109 b23d a3be 3bbd

sequential/dense_2/BiasAdd/ReadVariableOp f4 [32]
0.043271795 0.13296193 0.007367616 0.17369942 0.02548554 -0.017178897 0.15428115 0.05049676
0.0127518 -0.034511853 0.06869263 0.1742141 0.042543575 0.1672869 0.12435719 0.084506005
-0.06421248 0.052424636 -0.036960058 0.03211893 0.18093961 0.05134505 0.057370428 0.050976723
-0.022653459 -0.029583348 0.10819824 0.0013789433 0.07902804 0.019573525 0.005034245 -0.07891281
00000000: c43d 313d 2c27 083e 0b6c f13b 43de 313e
00000010: 0dc7 d03c c2ba 8cbc e1fb 1d3e b1d5 4e3d
00000020: edec 503c 4d5c 0dbd b9ae 8c3d 2e65 323e
00000030: 2c42 2e3d 424d 2b3e fcae fe3d 7c11 ad3d
00000040: d581 83bd 37bb 563d 6e63 17bd 248f 033d
00000050: 3c48 393e 304f 523d 41fd 6a3d f8cc 503d
00000060: bf93 b9bc c758 f2bc 0a97 dd3d a9bd b43a
00000070: 74d9 a13d a858 a03c 4ff6 a43b 0a9d a1bd

sequential/dense_3/BiasAdd/ReadVariableOp f4 [34]
-0.087783456 0.09742898 0.13608447 0.07226762 -0.1627969 -0.2031085 0.0020305538 0.07952927
-0.066860124 -0.19633327 0.050726887 -0.03622868 0.0644218 -0.038818248 0.1190564 0.06414187
0.089336105 0.10704258 -0.092751354 -0.11508509 -0.02489752 -0.08761844 -0.09125714 0.07164713
0.023745822 0.06186998 0.10102314 0.033271506 0.0342181 -0.020563954 -0.0249963 -0.09734397
-0.11995818 -0.07705048
00000000: d0c7 b3bd d888 c73d ba59 0b3e 0c01 943d
00000010: 3bb4 26be adfb 4fbe 0a13 053b 3ee0 a23d
00000020: f6ed 88bd 970b 49be ffc6 4f3d 8664 14bd
00000030: 94ef 833d e2ff 1ebd d8d3 f33d d05c 833d
00000040: d9f5 b63d 2439 db3d 6cf4 bdbd bbb1 ebbd
00000050: e2f5 cbbc 4c71 b3bd 06e5 babd bbbb 923d
00000060: 9986 c23c 606b 7d3d 38e5 ce3d b447 083d
00000070: 4728 0c3d bd75 a8bc 0ac5 ccbc 465c c7bd
00000080: a2ac f5bd a4cc 9dbd

sequential/dense/BiasAdd/ReadVariableOp f4 [128]
0.051653985 -0.09707695 -0.00010298746 0.0 0.082523264 -0.031034991 0.02624245 -0.12271148
-0.010864503 0.06461952 -0.005765679 0.03330213 -0.009164733 -0.11022152 0.0 -0.016247218
-0.0174653 -0.01747833 -0.011946886 0.08377983 -0.09501011 -0.010648058 -0.016431278 -0.05136787
-0.000681373 0.0 0.1073869 0.0 -0.03148723 -0.07213892 -0.05888365 0.050104994
0.024166327 -0.042005084 -0.0170364 -0.13042764 -0.008140038 -0.06523393 0.0020110446 -0.012768002
-0.11594725 -0.038291194 0.04151241 0.07982057 0.087816164 -0.0028776503 0.06211787 -0.041384265
0.1165698 0.022259122 0.06743476 -0.09941002 -0.0997897 0.0 -0.013971418 -0.004391686
-0.013152895 0.06665999 -0.04573023 0.0 0.1734451 -0.12538397 0.0373876 -0.10865276
0.001375071 0.019800074 -0.12642227 -0.07275464 0.0 0.08316243 -0.06902592 0.022772815
-0.061796855 0.023730446 -0.039528705 -0.124635294 0.101105064 0.0013430287 -0.006002127 -0.0121691665
-0.02384327 -0.20637627 -0.052492928 -0.11663537 0.074534416 -0.0041051316 0.045723125 -0.004041055
-0.057764888 0.05762707 0.046413057 -0.030470803 0.10508476 0.0 -0.010819086 0.0994472
0.07913539 0.0 -0.044952948 -0.032697912 0.0 -0.015372912 -0.015136641 0.09770911
0.05231306 0.015967656 0.0411654 0.04979582 -0.023423849 0.08329765 0.0 -0.009775419
0.0 0.07073577 0.03132364 0.05769037 -0.0076365555 0.0 -0.08576667 0.0744026
0.11719242 0.019341625 -0.07937391 -0.0685128 0.04788293 0.0 -0.02641138 -0.0051037553
00000000: 2193 533d 48d0 c6bd f9fa d7b8 0000 0000
00000010: f501 a93d 183d febc 68fa d63c 2850 fbbd
00000020: 0701 32bc 3d57 843d 05ee bcbb d067 083d
00000030: ad27 16bc d2bb e1bd 0000 0000 e318 85bc
00000040: 6413 8fbc b72e 8fbc dfbc 43bc c294 ab3d
00000050: a994 c2bd 3175 2ebc e39a 86bc 1e67 52bd
00000060: 2b9e 32ba 0000 0000 aaed db3d 0000 0000
00000070: c1f8 00bd 92bd 93bd fb2f 71bd e53a 4d3d
00000080: 76f8 c53c 860d 2cbd ec8f 8bbc d38e 05be
00000090: cb5d 05bc 5e99 85bd bbcb 033b e230 51bc
000000a0: c075 edbd 3ad7 1cbd eb08 2a3d f878 a33d
000000b0: f6d8 b33d f696 3cbb 4f6f 7e3d 8c82 29bd
000000c0: 26bc ee3d c358 b63c 3c1b 8a3d 7b97 cbbd
000000d0: 8b5e ccbd 0000 0000 60e8 64bc 22e8 8fbb
000000e0: 3d7f 57bc 0885 883d 9f4f 3bbd 0000 0000
000000f0: 989b 313e a864 00be bd23 193d 5785 debd
00000100: ba3b b43a c433 a23c d774 01be 6200 95bd
00000110: 0000 0000 1051 aa3d 765d 8dbd 0e8e ba3c
00000120: b31e 7dbd 5a66 c23c dae8 21bd ca40 ffbd
00000130: 2c10 cf3d 9108 b03a 7ead c4bb 2f61 47bc
00000140: f652 c3bc 4d54 53be d302 57bd 86de eebd
00000150: 80a5 983d 5784 86bb 2c48 3b3d d46a 84bb
00000160: e09a 6cbd 5d0a 6c3d 9e1b 3e3d e89d f9bc
00000170: ae36 d73d 0000 0000 8942 31bc f9aa cb3d
00000180: bc11 a23d 0000 0000 9520 38bd 3fee 05bd
00000190: 0000 0000 abde 7bbc adff 77bc b71b c83d
000001a0: 3846 563d 9ace 823c 0d9d 283d b4f6 4b3d
000001b0: 5fe3 bfbc f597 aa3d 0000 0000 1429 20bc
000001c0: 0000 0000 eadd 903d 384d 003d bd4c 6c3d
000001d0: 123c fabb 0000 0000 70a6 afbd 6460 983d
000001e0: 9402 f03d 5472 9e3c ca8e a2bd 7050 8cbd
000001f0: e420 443d 0000 0000 ae5c d8bc 673d a7bb

sequential/dense/MatMul f4 [128, 84]
-0.036090627 0.23360129 -0.1200524 0.29327533 -0.0925685 -0.032051537 -0.045598153 0.22109182
-0.31067073 0.12352256 -0.24407296 0.18385726 -0.14896768 0.24359746 -0.19541425 0.17041975
-0.2381848 0.18323351 -0.12111383 0.21144404 -0.23495567 0.092232935 -0.09025161 0.15797164
-0.07593032 -0.06940504 -0.011768963 0.1382308 -0.16013968 -0.017766887 -0.08257491 0.22106019
-0.19568953 0.04170574 -0.14350095 0.13011105 -0.17992176 0.0061703646 -0.056563713 0.011570172
-0.1180755 0.11504923 -0.16193897 -0.1742876 -0.020145735 -0.18220547 -0.25361598 -0.12193702
-0.10480488 0.02436937 0.0060512535 -0.062396217 0.06310762 -0.03709155 -0.25281626 -0.108493574
-0.18927121 0.15711428 -0.046354454 0.18555148 -0.069412775 -0.08592577 -0.24353886 0.1642492
-0.18931839 0.061342806 -0.03144194 0.25712794 -0.024348091 0.14511926 -0.12547016 0.038513787
-0.004250042 0.19514501 0.094824106 0.11053107 -0.10055296 0.0148685165 -0.05964398 0.07405579
-0.06785156 -0.012783961 0.064382315 0.043346193 -0.39239195 -0.3146694 -0.20431483 -0.043310482
-0.0934511 -0.036349725 -0.24629761 0.033973202 -0.04861979 0.19666743 0.03137971 0.1058694
0.21482857 0.3094031 0.083709754 0.30359975 0.21296602 0.31582862 0.17155725 0.13987596
0.0032046544 0.15679948 0.1505049 0.05731881 -0.08662893 0.18116598 -0.005285547 -0.15514667
-0.0871023 -0.092336 -0.014682771 0.07733565 -0.14987922 -0.064038076 -0.12234575 0.008969963
0.05590066 -0.14015527 0.11454079 -0.10519714 -0.12971757 -0.0580401 -0.02122417 -0.103428
-0.10516681 -0.11660506 -0.16197824 -0.01956862 0.17181502 -0.040431287 0.16562703 0.08087352
-0.11970537 0.15852313 -0.15320317 0.049414124 0.06286362 0.08370775 -0.012142297 0.23429133
0.11922183 0.015011659 -0.057035346 -0.067060575 -0.24064688 0.1076994 -0.06431343 0.07989494
-0.0388743 0.1237041 0.059557498 0.08745616 0.030136198 0.100994036 -0.23456004 0.110403314
-0.059345778 -0.040195737 -0.13031422 0.2144591 -0.18101962 -0.09368125 -0.10782455 0.026294606
-0.025333162 0.2026252 -0.027807143 0.05628597 0.07865584 0.07472166 -0.06092339 -0.042156134
0.12427135 0.10045106 -0.13889332 -0.027234768 -0.07499639 -0.14118193 -0.19715117 0.08526944
-0.1320749 -0.06085331 -0.10908685 0.0074651516 -0.16772252 -0.052865688 0.007157252 0.045458052
-0.21074352 -0.00011400313 -0.02996401 -0.09217133 -0.10284612 -0.15175143 0.1418927 -0.06613535
-0.073214725 0.053890724 -0.1470099 0.04694842 0.07068973 0.09976318 -0.029942824 -0.019272065
-0.028250348 0.15568271 0.11675726 -0.16332689 0.09876209 -0.0057833334 0.13834453 0.16423494
0.19134748 -0.05207596 0.054010876 0.15555125 0.084633864 -0.011221486 0.097793676 -0.15009944
-4.8415197e-05 0.02790968 0.0454499 -0.1116522 0.17348966 -0.19524047 -0.0763191 -0.055980273
0.1544416 -0.1323053 0.21768874 -0.104158536 0.090712875 -0.097359575 -0.02244245 -0.09320994
0.21839368 0.016052814 0.060763653 0.06497953 0.19660145 0.08592602 0.18431826 -0.14239572
0.067623116 -0.065887906 0.20748158 -0.2729959 0.062127814 0.03709443 0.030996978 -0.14965178
00000000: c4d3 13bd 2d35 6f3e 08de f5bd 2f28 963e
00000010: 8e94 bdbd 7948 03bd 21c5 3abd e565 623e
00000020: 3c10 9fbe 65f9 fc3d 43ee 79be 1445 3c3e
00000030: fc8a 18be 9d71 793e ac1a 48be 8482 2e3e
00000040: b7e6 73be 91a1 3b3e 870a f8bd c984 583e
00000050: 3898 70be 9fe4 bc3d d6d5 b8bd 51c3 213e
00000060: 5b81 9bbd 3b24 8ebd 9cd2 40bc 608c 0d3e
00000070: a8fb 23be dd8b 91bc 091d a9bd 9a5d 623e
00000080: d662 48be a3d3 2a3d eaf1 12be d53b 053e
00000090: 693d 38be c530 ca3b 5aaf 67bd d290 3d3c
000000a0: 91d1 f1bd ee9e eb3d 54d3 25be 7378 32be
000000b0: ab08 a5bc 1294 3abe f4d9 81be 1eba f9bd
000000c0: f1a3 d6bd 46a2 c73c 9849 c63b 2d93 7fbd
000000d0: 913e 813d 4fed 17bd 2271 81be e131 debd
000000e0: 50d0 41be 91e2 203e 2bde 3dbd 3501 3e3e
000000f0: 4928 8ebd daf9 afbd 4062 79be f130 283e
00000100: aedc 41be 9842 7b3d 44c9 00bd 46a6 833e
00000110: a675 c7bc 259a 143e 407b 00be a2c0 1d3d
00000120: f043 8bbb 18d4 473e 2433 c23d 1d5e e23d
00000130: b6ee cdbd 149b 733c 3f4d 74bd 90aa 973d
00000140: c2f5 8abd d273 51bc e0da 833d c78b 313d
00000150: 99e7 c8be 591c a1be e837 51be 5566 31bd
00000160: 4a63 bfbd 73e3 14bd 7135 7cbe 7c27 0b3d
00000170: 8b25 47bd 3063 493e 0388 003d 0ed2 d83d
00000180: 05fc 5b3e 156a 9e3e 0570 ab3d 6d71 9b3e
00000190: c413 5a3e 4ab4 a13e b4ac 2f3e a53b 0f3e
000001a0: 2e05 523b 0b90 203e f51d 1a3e 21c7 6a3d
000001b0: 826a b1bd 9383 393e 6232 adbb c5de 1ebe
000001c0: b162 b2bd a81a bdbd 0190 70bc 2762 9e3d
000001d0: f079 19be 6526 83bd 6990 fabd c0f6 123c
000001e0: 17f8 643d dd84 0fbe 5d94 ea3d 9971 d7bd
000001f0: afd4 04be 75bb 6dbd 50de adbc 0fd2 d3bd
00000200: b261 d7bd a2ce eebd a0dd 25be 5f4e a0bc
00000210: 47f0 2f3e 479b 25bd 229a 293e 04a1 a53d
00000220: 1728 f5bd e353 223e 4be1 1cbe 7766 4a3d
00000230: a4be 803d f86e ab3d 7cf0 46bc 11ea 6f3e
00000240: 932a f43d 76f3 753c e59d 69bd 0e57 89bd
00000250: 236c 76be 8191 dc3d c2b6 83bd f59f a33d
00000260: a83a 1fbd 9358 fd3d 90f2 733d 371c b33d
00000270: 30e0 f63c f6d5 ce3d 8230 70be 221b e23d
00000280: 8f14 73bd 49a4 24bd 1771 05be 2b9b 5b3e
00000290: 355d 39be f5db bfbd 1ed3 dcbd c967 d73c
000002a0: 7e87 cfbc fb7c 4f3e cecb e3bc 1e8c 663d
000002b0: 5016 a13d ab07 993d ce8a 79bd e9ab 2cbd
000002c0: fa81 fe3d 49b9 cd3d 0d3a 0ebe 731b dfbc
000002d0: b597 99bd ff91 10be ffe1 49be bfa1 ae3d
000002e0: a53e 07be 5241 79bd ed68 dfbd 3b9e f43b
000002f0: 74bf 2bbe b189 58bd 6287 ea3b 3932 3a3d
00000300: 26cd 57be f714 efb8 1577 f5bc 52c4 bcbd
00000310: fda0 d2bd ba64 1bbe 524c 113e f871 87bd
00000320: 9af1 95bd 85bc 5c3d c389 16be fd4c 403d
00000330: c7c5 903d a350 cc3d a74a f5bc 73e0 9dbc
00000340: 466d e7bc 4a6b 1f3e 6e1e ef3d 2a3f 27be
00000350: c743 ca3d 1e82 bdbb 30aa 0d3e 342d 283e
00000360: 98f0 433e 9a4d 55bd 823a 5d3d d448 1f3e
00000370: 8554 ad3d 53da 37bc 0d48 c83d abb3 19be
00000380: 6c11 4bb8 d7a2 e43c ad29 3a3d e9a9 e4bd
00000390: 46a7 313e 1eed 47be 304d 9cbd 924b 65bd
000003a0: f025 1e3e 0a7b 07be cce9 5e3e 1251 d5bd
000003b0: acc7 b93d 7564 c7bd 3bd9 b7bc dae4 bebd
000003c0: 98a2 5f3e 3181 833c 4fe3 783d fd13 853d
000003d0: e451 493e fbf9 af3d edbd 3c3e 2fd0 11be
000003e0: fd7d 8a3d 3df0 86bd 0d76 543e 1ec6 8bbe
000003f0: bc79 7e3d 54f0 173d 60ed fd3c 513e 19be

sequential/dense_1/MatMul f4 [64, 128]
0.12441556 0.25775582 0.11757105 -0.030542508 0.049983427 0.19039598 -0.18566681 0.08222713
0.18239415 -0.027104352 0.04565099 0.22848296 -0.1358489 0.06795077 0.0072748363 -0.11948001
0.19581246 0.2833146 0.17025906 -0.25030386 -0.13791464 0.06826128 0.073682934 0.19886447
0.02875076 -0.057795554 -0.1595486 0.09280728 0.08830871 0.046099626 0.14632383 -0.15507457
0.10068272 0.12962478 -0.101098195 -0.0666639 -0.14374568 -0.005172686 -0.074592605 -0.0013235984
0.2180911 0.03507852 0.087476894 0.079898335 -0.38902396 -0.123970926 0.07954997 0.1868291
-0.14640447 -0.14990003 -0.011636036 -0.14165625 0.10266259 -0.13768153 0.3445132 0.124612615
0.15215805 -0.10731046 0.11591381 -0.11240851 -0.097421944 0.051062915 0.15647796 0.04008924
-0.14961408 -0.13307138 0.03918585 0.023790352 -0.052394517 -0.14455141 -0.24252275 -0.05196771
-0.18098071 0.13818209 0.015377901 -0.23611668 -0.070006624 0.08707945 -0.16905594 0.107693076
0.41842592 -0.2544557 0.30564666 -0.08241906 -0.06929424 -0.007056265 0.19339247 0.29343733
-0.113000534 -0.15580331 -0.087529026 0.26645875 0.1437537 0.10510294 0.088799834 -0.24656034
-0.10451269 -0.024791747 -0.17915156 0.15643203 0.13479017 -0.09317692 -0.007067267 0.014170234
0.13330737 0.48722437 0.5885163 -0.12299027 0.1285157 -0.24011037 -0.090316646 -0.15325806
-0.042324245 -0.016298162 0.13402106 -0.0056922673 -0.0977114 0.1294543 0.13107002 -0.053897727
-0.16570862 0.014114901 0.16909382 -0.020074422 0.17508712 -0.025340542 0.508879 -0.2434025
-0.14598416 0.17847905 0.14173895 -0.09310087 0.13731472 -0.11248928 0.1249634 -0.048081636
0.13630275 0.26839814 0.15168847 0.0369855 -0.16344374 -0.2078016 0.0007416159 0.112077095
-0.23363267 0.028794568 0.0742095 0.2521228 0.065702654 0.16541083 -0.052969813 -0.017058892
-0.02093529 0.02085805 0.4859372 0.16193856 -0.25902915 0.34788403 -0.03355989 -0.10856233
-0.0626597 0.060201697 0.10353989 -0.021680743 -0.1814974 -0.057292342 0.12539582 -0.07199109
0.22158359 0.14804819 0.2900528 -0.17940454 0.502467 0.05978727 -0.23149814 -0.07723076
0.15038504 0.03777248 0.15568039 0.042201083 0.12310716 -0.1194147 0.18826498 0.104459524
0.09389937 -0.09383629 0.023057856 -0.012155145 0.124746695 0.07567335 0.08812047 -0.08155039
-0.2884915 0.03956721 -0.012240973 0.15458353 0.023353353 0.08270029 -0.016554398 0.20541784
0.23788334 0.06714684 0.025519865 0.012809233 0.08769387 0.19439188 -0.014614163 -0.16612872
-0.095923774 0.08856036 -0.19263607 -0.06940407 -0.13627934 0.098290935 0.20667121 -0.19822711
-0.12403109 0.25689015 0.1576314 0.14446846 -0.012619693 -0.0884278 0.02282302 0.39540017
-0.19862361 0.023965329 0.1294774 -0.08590978 0.08042283 -0.00026946823 -0.04542373 0.24899101
0.05387074 0.1147127 0.015199069 -0.110154636 0.07638958 -0.10917291 -0.1155643 0.077376716
0.051817194 0.21621655 -0.06391145 -0.18339431 -0.15361038 0.053710893 -0.20545962 0.27497005
0.14957312 0.36971045 -0.11565436 0.056805838 -0.0072763655 -0.15045628 -0.042520367 0.13786668
00000000: 96cd fe3d 92f8 833e 17c9 f03d 4834 fabc
00000010: 6cbb 4c3d 2af7 423e 711f 3ebe b366 a83d
00000020: 88c5 3a3e f209 debc 88fc 3a3d 70f7 693e
00000030: f91b 0bbe c629 8b3d c061 ee3b efb1 f4bd
00000040: 1083 483e 9c0e 913e 6458 2e3e d427 80be
00000050: 7f39 0dbe 92cc 8b3d 14e7 963d 21a3 4b3e
00000060: b786 eb3c 08bb 6cbd b560 23be be11 be3d
00000070: 32db b43d f6d2 3c3d ead5 153e decb 1ebe
00000080: be32 ce3d 5cbc 043e 920c cfbd 1587 88bd
00000090: 1132 13be a37f a9bb 02c4 98bd 987c adba
000000a0: 4653 5f3e 7fae 0f3d 1627 b33d bda1 a33d
000000b0: 262e c7be 78e4 fdbd 18eb a23d 2150 3f3e
000000c0: 0eeb 15be 657f 19be 13a5 3ebc 560e 11be
000000d0: c440 d23d 63fc 0cbe 0964 b03e e634 ff3d
000000e0: 52cf 1b3e 96c5 dbbd 3864 ed3d 6f36 e6bd
000000f0: 2885 c7bd 5927 513d c23b 203e 9d34 243d
00000100: 6f34 19be dd43 08be 5881 203d fce3 c23c
00000110: a29b 56bd 4905 14be e257 78be 18dc 54bd
00000120: 0253 39be 9b7f 0d3e 97f3 7b3c 92c8 71be
00000130: a25f 8fbd b656 b23d 001d 2dbe 308e dc3d
00000140: ec3b d63e 0448 82be b87d 9c3e 53cb a8bd
00000150: 23ea 8dbd 3e38 e7bb ad08 463e 6b3d 963e
00000160: d36c e7bd e78a 1fbe 6b42 b3bd 486d 883e
00000170: 2c34 133e 3640 d73d b0dc b53d 507a 7cbe
00000180: c00a d6bd 1018 cbbc 8273 37be b82f 203e
00000190: 6f06 0a3e 8bd3 bebd 8894 e7bb 452a 683c
000001a0: ba81 083e 7975 f93e 01a9 163f 53e2 fbbd
000001b0: 9f99 033e 7edf 75be eff7 b8bd aeef 1cbe
000001c0: 305c 2dbd b983 85bc d13c 093e 3386 babb
000001d0: ea1c c8bd ab8f 043e 3837 063e ddc3 5cbd
000001e0: 85af 29be 3042 673c ee26 2d3e 1d73 a4bc
000001f0: 0a4a 333e f896 cfbc e545 023f 813e 79be
00000200: df7c 15be 36c3 363e 0424 113e abab bebd
00000210: 3b9c 0c3e c860 e6bd d0ec ff3d 40f1 44bd
00000220: f392 0b3e 7b6b 893e 3954 1b3e 1c7e 173d
00000230: cc5d 27be f1c9 54be 0069 423a ad88 e53d
00000240: 673d 6fbe 96e2 eb3c 26fb 973d 3d16 813e
00000250: 1d8f 863d 7561 293e e0f6 58bd 17bf 8bbc
00000260: 7c80 abbc 80de aa3c c3cc f83e 39d3 253e
00000270: 789f 84be db1d b23e 1876 09bd ed55 debd
00000280: bb53 80bd 0e96 763d b90c d43d d09b b1bc
00000290: 74da 39be 60ab 6abd c367 003e 1170 93bd
000002a0: cfe6 623e f299 173e cd81 943e d3b5 37be
000002b0: ada1 003f 7fe3 743d d90d 6dbe 292b 9ebd
000002c0: 89fe 193e 51b7 1a3d ae6a 1f3e 0bdb 2c3d
000002d0: 9b1f fc3d b28f f4bd 89c8 403e e0ee d53d
000002e0: 504e c03d 3e2d c0bd d4e3 bc3c 6026 47bc
000002f0: 327b ff3d a1fa 9a3d 8178 b43d e403 a7bd
00000300: 28b5 93be 3a11 223d 5d8e 48bc 254b 1e3e
00000310: 884f bf3c c55e a93d 179d 87bc 0e59 523e
00000320: b197 733e 4884 893d 090f d13c d1dd 513c
00000330: d898 b33d aa0e 473e 3e70 6fbc a61d 2abe
00000340: af73 c4bd 225f b53d 6442 45be b923 8ebd
00000350: d08c 0bbe c24c c93d 9ea1 533e 0cfc 4abe
00000360: 0304 febd 1b87 833e 206a 213e 8aef 133e
00000370: d4c2 4ebc a219 b5bd 58f7 ba3c e471 ca3e
00000380: fd63 4bbe f052 c43c b995 043e 77f1 afbd
00000390: bab4 a43d 6a47 8db9 3c0e 3abd 80f7 7e3e
000003a0: 91a7 5c3d 7eee ea3d 8405 793c c198 e1bd
000003b0: 2472 9c3d 0c96 dfbd faac ecbd af77 9e3d
000003c0: 443e 543d df67 5d3e 02e4 82bd b8cb 3bbe
000003d0: 0a4c 1dbe f4ff 5b3d 0264 52be e0c8 8c3e
000003e0: b229 193e b04a bd3e 31dc ecbd 3dad 683d
000003f0: 946e eebb 3611 1abe d629 2ebd ec2c 0d3e

sequential/dense_2/MatMul f4 [32, 64]
-0.041663148 -0.070185706 0.13112387 0.053625606 -0.50129056 0.17327416 0.08610593 0.25741297
0.09104032 0.11388434 -0.32007253 -0.1699935 0.40023512 -0.01716772 -0.08448886 -0.17192397
-0.15433611 -0.0066440697 0.36275828 0.08655839 -0.014324539 0.11629539 0.08695011 -0.008332154
0.2559508 -0.3735317 0.015026351 -0.17465945 0.028474355 0.07204192 -0.28515205 -0.124319054
0.22403727 0.285713 0.042184323 -0.011234893 0.26599646 -0.04863338 0.09282968 0.15182579
-0.20726483 -0.06359117 0.09658791 0.023881743 0.1238078 -0.21080706 -0.2858771 -0.1910856
-0.15616547 0.26033598 0.045102913 0.067959525 0.09323485 -0.045693483 0.14604723 0.1288522
-0.018715253 -0.09718868 -0.14781924 0.050377894 -0.15560357 0.16675517 0.20050941 -0.3926944
0.093848705 0.13389 0.007631025 0.2709079 0.031940147 -0.39881244 0.0019665563 0.09203923
0.036278944 0.063408956 0.16826506 0.1846172 0.19442514 0.22237474 -0.23094785 0.21906263
0.11473426 0.18404895 -0.26687598 -0.32091612 -0.28554994 -0.06306925 -0.012100955 0.025995037
0.072072126 0.49008533 0.09406962 0.083345525 0.23107903 0.029687839 -0.1798243 0.11240302
-0.031155748 -0.31544232 0.26067287 -0.17809945 -0.27152872 -0.14501251 -0.33550298 0.032331157
-0.21978773 -0.07931019 -0.18031171 -0.10975655 -0.15481186 0.33809817 0.26631874 0.23235431
0.048605718 -0.091794446 0.25773686 -0.20473951 -0.1510189 0.2880881 0.24377738 0.23931718
-0.0590678 -0.075007685 0.12322688 -0.043577887 0.29571646 0.14400814 0.31233573 0.069535464
-0.2736406 0.16431281 -0.404826 -0.17888243 0.13157284 0.38683334 0.103424884 0.09696576
-0.0427174 0.019485364 -0.06257308 0.3839701 -0.37708434 -0.3073519 -0.19709757 7.036707e-05
-0.19887732 -0.11094915 0.12258931 -0.06386529 0.1528728 -0.26302353 0.32350612 -0.4577252
0.3227363 0.37335455 0.40402538 0.08349988 0.17262933 0.2979506 0.07968649 -0.37518802
-0.06528302 0.41799173 -0.041015312 0.059689004 -0.0032852804 -0.14219835 -0.19964036 0.14295453
0.49512187 -0.052322615 0.20763426 0.28931332 0.31088778 0.16641693 -0.3856267 0.015358501
0.27549142 0.32882598 -0.007095546 -0.4711904 -0.03908797 0.08256332 -0.17792116 -0.119965374
-0.17407419 0.05411992 0.16100602 -0.06846963 0.3887817 -0.030436862 0.09428994 -0.20866135
0.14396635 -0.22659896 0.17107941 0.16506751 -0.12923764 -0.15218581 -0.22644617 0.122086585
0.13668549 0.11722431 0.14137243 0.23154826 0.1827436 -0.06519835 0.3220175 -0.018628176
0.09648633 -0.23039176 -0.2794964 0.008676087 -0.066947185 0.19839549 0.019853797 0.31962657
0.054711957 -0.33053306 0.5695236 0.5545578 0.3293266 -0.2153265 -0.32348162 0.27870515
-0.023925442 0.11404194 -0.12621117 0.18282059 -0.06578898 -0.25317615 -0.14340685 0.24962413
0.12408491 0.31549674 0.1282088 0.013234127 -0.15248309 -0.0588312 0.090595275 0.114486225
0.095228344 -0.18332203 0.1021615 -0.032590106 0.08348434 0.048391815 0.101583086 -0.009720264
-0.36004153 0.06085398 0.31138125 0.014604443 0.16293442 0.20146082 -0.049939264 0.07270639
00000000: faa6 2abd 86bd 8fbd 5645 063e 86a6 5b3d
00000010: 9454 00bf c86e 313e 4e58 b03d a2cb 833e
00000020: 5973 ba3d 313c e93d 8ce0 a3be c712 2ebe
00000030: 9eeb cc3e 51a3 8cbc 7f08 adbd d60c 30be
00000040: 490a 1ebe 7fb6 d9bb 74bb b93e 8645 b13d
00000050: 79b1 6abc 472c ee3d e612 b23d 9683 08bc
00000060: fc0b 833e 8c3f bfbe 1631 763c edd9 32be
00000070: 0d43 e93c b78a 933d 73ff 91be fd9a febd
00000080: 076a 653e f948 923e 78c9 2c3d 8f12 38bc
00000090: b030 883e cc33 47bd 7d1d be3d 3878 1b3e
000000a0: 3b3d 54be 163c 82bd e2cf c53d a5a3 c33c
000000b0: f28e fd3d cedd 57be 7c5e 92be f2ab 43be
000000c0: d7e9 1fbe c24a 853e d5bd 383d 5d2e 8b3d
000000d0: eaf1 be3d 1729 3bbd 688d 153e d5f1 033e
000000e0: bb50 99bc dc0a c7bd ed5d 17be 0d59 4e3d
000000f0: 8b56 1fbe dec1 2a3e 5752 4d3e 3e0f c9be
00000100: c033 c03d 761a 093e ad0d fa3b 71b4 8a3e
00000110: acd3 023d 2531 ccbe 57e1 003b 107f bc3d
00000120: 3b99 143d 8edc 813d ad4d 2c3e 4b0c 3d3e
00000130: 6217 473e 34b6 633e 987d 6cbe f451 603e
00000140: ccf9 ea3d 5477 3c3e f8a3 88be 1e4f a4be
00000150: 9a33 92be 732a 81bd 1543 46bc 8bf3 d43c
00000160: 8d9a 933d 77ec fa3e 93a7 c03d 0fb1 aa3d
00000170: fb9f 6c3e e933 f33c dc23 38be 8e33 e63d
00000180: 573a ffbc a881 a1be ea76 853e b45f 36be
00000190: d005 8bbe 297e 14be 0cc7 abbe ad6d 043d
000001a0: 0910 61be 626d a2bd a2a3 38be 0bc8 e0bd
000001b0: 0087 1ebe 341b ad3e ee5a 883e 4aee 6d3e
000001c0: ca16 473d bafe bbbd 16f6 833e 3ca7 51be
000001d0: b3a4 1abe 4980 933e c7a0 793e 900f 753e
000001e0: 14f1 71bd a19d 99bd 605e fc3d ba7e 32bd
000001f0: 2668 973e df76 133e 78ea 9f3e 9c68 8e3d
00000200: 9f1a 8cbe 9e41 283e 5a45 cfbe f52c 37be
00000210: 08bb 063e 050f c63e 6dd0 d33d fc95 c63d
00000220: 71f8 2ebd c59f 9f3c 5126 80bd bb97 c43e
00000230: 3311 c1be 3a5d 9dbe f2d3 49be 0892 9338
00000240: 7fa6 4bbe 4f39 e3bd 1b10 fb3d cecb 82bd
00000250: b08a 1c3e 05ab 86be 98a2 a53e f55a eabe
00000260: b13d a53e 5428 bf3e 6adc ce3e fc01 ab3d
00000270: bec5 303e fb8c 983e ac32 a33d a518 c0be
00000280: 1bb3 85bd 0303 d63e acff 27bd 757c 743d
00000290: dc4d 57bb 729c 11be 866e 4cbe ac62 123e
000002a0: 9d80 fd3e 3d50 56bd 139e 543e e020 943e
000002b0: af2c 9f3e 3369 2a3e dd70 c5be 39a2 7b3c
000002c0: 360d 8d3e e15b a83e c181 e8bb de3f f1be
000002d0: b51a 20bd f516 a93d f730 36be 68b0 f5bd
000002e0: 8140 32be d9ac 5d3d c3de 243e ce39 8cbd
000002f0: 650e c73e ba56 f9bc 161b c13d 52ab 55be
00000300: ea6b 133e 8f09 68be 712f 2f3e 7507 293e
00000310: df56 04be 99d6 1bbe 81e1 67be 8808 fa3d
00000320: 48f7 0b3e 4d13 f03d efc3 103e fd1a 6d3e
00000330: 2321 3b3e b686 85bd 7adf a43e 1e9a 98bc
00000340: a09a c53d d1eb 6bbe 271a 8fbe 2526 0e3c
00000350: 9b1b 89bd 3028 4b3e 6ea4 a23c 18a6 a33e
00000360: a519 603d a13b a9be 4ccc 113f 80f7 0d3f
00000370: 7f9d a83e 8d7e 5cbe 629f a5be 71b2 8e3e
00000380: 4aff c3bc d28e e93d 803d 01be 5235 3b3e
00000390: 5fbc 86bd 4ea0 81be 3fd9 12be 789d 7f3e
000003a0: 3b20 fe3d ca88 a13e 2b49 033e f4d3 583c
000003b0: 8724 1cbe fcf8 70bd 048a b93d c177 ea3d
000003c0: 1407 c33d c5b8 3bbe 0c3a d13d 347d 05bd
000003d0: d6f9 aa3d 7f36 463d cb0a d03d be41 1fbc
000003e0: 5d57 b8be 0642 793d 5d6d 9f3e 7947 6f3c
000003f0: 48d8 263e bf4b 4e3e 1d8d 4cbd 16e7 943d

sequential/dense_3/MatMul f4 [34, 32]
-0.25662085 -0.10544964 -0.3792143 -0.19536866 -0.38743538 0.10681839 0.12348013 0.11638764
0.19067004 0.19282381 -0.17109905 -0.16100241 0.23406354 -0.25375593 0.2833593 0.13344914
0.3141467 -0.43643484 -0.1303561 -0.042788967 -0.33350143 0.10904661 -0.14820345 -0.17935109
-0.4666278 0.15182479 0.05136716 0.21275787 0.1846662 -0.014031701 0.012040306 0.0070292642
-0.14673509 0.046233952 0.12645532 -0.13032942 -0.28783843 -0.5271754 0.1280413 -0.22358593
0.10833463 0.17213541 0.11152889 -0.3066447 -0.07689707 0.43686175 -0.565642 -0.5009087
0.2047663 -0.21932422 -0.15114094 0.2250866 0.23058242 -0.080159 -0.09290343 -0.41217437
-0.037749976 -0.2366605 0.2020655 0.1930581 0.23317228 0.112808995 0.053181212 -0.20537595
-0.03386898 -0.3658819 0.15528853 0.23467128 -0.2307614 -0.21095905 -0.42385656 0.4844806
-0.39376155 -0.15400085 -0.37988386 -0.065730356 -0.08489724 0.09878653 0.4344676 -0.22541286
-0.42427486 -0.20232512 -0.1765632 -0.1514134 0.19641224 -0.2625133 0.04493851 -0.22225365
-0.095633365 -0.40534258 -0.029663058 0.13791427 -0.13787252 0.105519794 -0.1196041 -0.29425752
-0.24141979 -0.16726173 -0.34251046 -0.3127299 0.38053828 -0.20980282 0.10033105 -0.11914144
-0.32764792 -0.2647063 -0.20385742 -0.026896337 0.18040623 0.12540679 -0.5471121 -0.34788203
-0.25353733 -0.20872784 0.12745658 -0.243463 0.21994053 -0.018324742 0.1737513 -0.0059444355
0.253881 -0.296173 -0.006533876 -0.06923572 0.19286318 0.33462137 4.2948377e-06 0.15864527
-0.51976097 -0.27501076 -0.627371 -0.014083676 -0.62025666 0.34787074 0.03663589 0.27142382
0.014798083 0.04628658 -0.31693155 0.15619667 -0.25552925 -0.28001055 -0.0035189143 0.00946979
0.019214073 -0.40872544 -0.29622594 -0.23206744 0.24667631 0.007393513 -0.32880238 0.29605532
-0.45641726 -0.5476763 0.09640879 0.2377168 -0.40462166 -0.062158573 0.2180361 -0.019892186
-0.30364487 -0.39326072 0.22491805 -0.038210727 0.1827001 -0.083522305 -0.5561037 0.28497967
-0.011749475 -0.3529624 -0.23178741 0.038614385 0.19236632 -0.02960535 0.10219635 -0.35160542
0.020310981 -0.041999564 -0.47216436 -0.12809445 -0.11312658 -0.4246426 0.082638465 0.15145163
0.0076610576 -0.2501155 -0.0024552646 -0.34019065 -0.71912634 0.18904246 0.14944303 -0.38324475
-0.14713357 -0.15474857 -0.45990717 -0.22715175 0.21585345 -0.3259217 0.04870752 0.08215923
0.24200474 0.16143224 0.35337073 -0.56338245 -0.24236721 0.1519578 -0.49537346 -0.14671962
-0.34127492 0.04784629 0.029730825 0.21229771 -0.29909533 0.008729638 -0.5594507 0.18578139
-0.3331942 0.39079574 -0.11514126 -0.2515645 0.111666575 -0.5463295 -0.1147692 0.22604902
-0.06651786 -0.16739239 -0.15234335 0.1541229 0.215425 -0.752629 0.34383073 0.13469687
-0.24239504 -0.1342642 -0.035340443 -0.42283335 -0.27579373 0.35163385 0.0029762532 -0.1621872
0.32507747 0.42772788 0.027191976 -0.047064926 0.03675767 -0.2924787 0.15073329 -0.23468864
-0.37819955 0.1862617 -0.1744082 -0.16828403 -0.20044969 -0.0008510052 0.07155142 0.13399604
00000000: cf63 83be fbf5 d7bd 6028 c2be b90e 48be
00000010: ee5d c6be 9ac3 da3d 27e3 fc3d a55c ee3d
00000020: 023f 433e 9b73 453e 9734 2fbe d1dd 24be
00000030: 5aae 6f3e 4cec 81be 7814 913e e4a6 083e
00000040: d6d7 a03e 6374 dfbe 127c 05be 7c43 2fbd
00000050: b3c0 aabe d453 df3d a5c2 17be d0a7 37be
00000060: d7e9 eebe f577 1b3e 5f66 523d 33dd 593e
00000070: 2319 3d3e 38e5 65bc b444 453c be55 e63b
00000080: b941 16be d05f 3d3d 817d 013e 1375 05be
00000090: 8f5f 93be f8f4 06bf 421d 033e b6f3 64be
000000a0: 8cde dd3d 4444 303e 4269 e43d 8900 9dbe
000000b0: 367c 9dbd 58ac df3e eacd 10bf 8d3b 00bf
000000c0: 42ae 513e 8796 60be b1c4 1abe 1a7d 663e
000000d0: cc1d 6c3e 672a a4bd 2744 bebd 8508 d3be
000000e0: b89f 1abd 2157 72be 42ea 4e3e 06b1 453e
000000f0: b7c4 6e3e 6708 e73d 8bd4 593d 134e 52be
00000100: 33ba 0abd df54 bbbe f503 1f3e ab4d 703e
00000110: b74c 6cbe a605 58be ba03 d9be d70d f83e
00000120: 1d9b c9be 66b2 1dbe 2380 c2be a39d 86bd
00000130: 9bde adbd 9850 ca3d 8a72 de3e a1d2 66be
00000140: 8e3a d9be 512e 4fbe fccc 34be 1d0c 1bbe
00000150: 4a20 493e 2568 86be 7111 383d 7696 63be
00000160: 6ddb c3bd 1089 cfbe f1ff f2bc 6639 0d3e
00000170: 742e 0dbe c31a d83d fff2 f4bd eca8 96be
00000180: c036 77be a946 2bbe 885d afbe 221e a0be
00000190: ead5 c23e 8dd6 56be 5e7a cd3d 6d00 f4bd
000001a0: 78c1 a7be 9687 87be 00c0 50be b555 dcbc
000001b0: 69bc 383e a36a 003e 8a0f 0cbf 981d b2be
000001c0: a5cf 81be c0bc 55be fa83 023e 5d4e 79be
000001d0: 1738 613e c51d 96bc dceb 313e 8ac9 c2bb
000001e0: b1fc 813e fda3 97be 201a d6bb 75cb 8dbd
000001f0: ed7d 453e 7e53 ab3e 601c 9036 e873 223e
00000200: 0e0f 05bf 36ce 8cbe 639b 20bf 38bf 66bc
00000210: 24c9 1ebf 1d1c b23e 840f 163d 10f8 8a3e
00000220: a973 723c ff96 3d3d da44 a2be 05f2 1f3e
00000230: bbd4 82be 8b5d 8fbe 969d 66bb 2e27 1b3c
00000240: d566 9d3c 7644 d1be edaa 97be 16a3 6dbe
00000250: b798 7c3e 4845 f23b c958 a8be 9094 973e
00000260: 86af e9be 8434 0cbf f971 c53d 086c 733e
00000270: 922a cfbe fd99 7ebd db44 5f3e f0f4 a2bc
00000280: 5777 9bbe 7859 c9be eb50 663e da82 1cbd
00000290: bc15 3b3e be0d abbd d05c 0ebf dbe8 913e
000002a0: df80 40bc 7db7 b4be ae59 6dbe 1e2a 1e3d
000002b0: adfb 443e eb86 f2bc 524c d13d a005 b4be
000002c0: 3763 a63c bc07 2cbd 87bf f1be 312b 03be
000002d0: e9ae e7bd c16a d9be 5b3e a93d 2316 1b3e
000002e0: 9c09 fb3b 240f 80be 81e8 20bb 782d aebe
000002f0: aa18 38bf 5994 413e 9807 193e a838 c4be
00000300: 2faa 16be 6976 1ebe f478 ebbe 789a 68be
00000310: b008 5d3e 36df a6be 8981 473d 1943 a83d
00000320: 17d0 773e 7e4e 253e 02ed b43e d539 10bf
00000330: 1c2f 78be d39a 1b3e 97a1 fdbe ab3d 16be
00000340: 96bb aebe 79fa 433d 0f8e f33c 9264 593e
00000350: 0623 99be c106 0f3c 2938 0fbf 7a3d 3e3e
00000360: 6e98 aabe 6116 c83e 2ecf ebbd 10cd 80be
00000370: 72b1 e43d 40dc 0bbf 1d0c ebbd 6579 673e
00000380: 843a 88bd e968 2bbe e5ff 1bbe 65d2 1d3e
00000390: 5f98 5c3e 4bac 40bf 950a b03e faed 093e
000003a0: 6836 78be 8e7c 09be 24c1 10bd 9d7d d8be
000003b0: d634 8dbe 5a09 b43e 3e0d 433b 6714 26be
000003c0: 8e70 a63e 26ff da3e b5c1 de3c 27c7 40bd
000003d0: 368f 163d c5bf 95be d459 1a3e 3852 70be
000003e0: 5fa3 c1be 63bb 3e3e 1098 32be a652 2cbe
000003f0: af42 4dbe fe15 5fba 8d89 923d 4236 093e
